model/train_cas_predict1.pth (torch, 17810 bytes, 29 tensors)

lstm1.weight_ih_l0 f4 [16, 12]
000000 51 00 ae be 05 ac ae 3e df ee 7c 3e 9e 13 02 3e
       -0.33984616 0.34115615 0.24700497 0.12702796
000010 9b 09 fc be 3e e5 03 3f 45 53 36 3e ff 30 e2 be
       -0.49226078 0.5152167 0.17805202 -0.44178006
000020 94 ae 05 bf 29 1f b8 3c 32 77 d5 be c4 53 e9 3e
       -0.5221951 0.022475796 -0.416925 0.4557172
000030 bd 0b ff be 5f 32 1d bf d5 f1 32 3f 6b ac ad 3d
       -0.49813643 -0.61404985 0.69900256 0.08480152
000040 10 dd ee be 1b ad 33 3e a5 58 ee be 14 90 9d be
       -0.46653032 0.17546503 -0.46552005 -0.30773985
000050 7b f9 18 bf 09 de 0c bf 3c 78 01 bf fb 25 dc be
       -0.59755677 -0.550263 -0.5057409 -0.42997727
000060 3d 40 a0 3d 93 cb 04 3e 1e 47 19 bf 0d d8 c3 3e
       0.078247525 0.12968282 -0.5987414 0.3825077
000070 29 18 09 3f 52 ba 09 bd b3 05 95 be 8e 47 e7 3e
       0.5355249 -0.033624955 -0.2910591 0.4517178
000080 f4 fe fc be f3 55 82 be d6 04 32 be 2b fd 1a 40
       -0.49413264 -0.254562 -0.17384657 2.4217021
000090 7b 1f 99 3e c7 4d 7d 3e fa 0c 97 3f 88 84 ca be
       0.2990683 0.24736701 1.1800835 -0.39554238
0000a0 6c ec 0a 40 2a 09 ec 3e 16 13 5f be e7 6d d5 be
       2.17068 0.46100742 -0.21784624 -0.4168541
0000b0 87 ec 89 3f c1 7a 5f bf 0e 76 21 3f 54 32 e7 3f
       1.0775307 -0.8729668 0.6307076 1.8062234
0000c0 0d f1 45 be 36 66 93 3e 9a e2 93 3d ae 2d 68 3f
       -0.19330235 0.28788918 0.07220955 0.906947
0000d0 9f 70 0a 40 72 32 0c 3f 11 16 77 be bf 9d da bd
       2.1631238 0.54764473 -0.24129511 -0.10674619
0000e0 05 60 9f 3d 53 c5 68 3f df 59 b7 3e 61 c6 99 be
       0.07781986 0.9092609 0.35810754 -0.30034164
0000f0 b6 79 b7 be 75 06 1a 40 41 05 de 3f 14 d1 a5 3f
       -0.35835046 2.406644 1.7345353 1.295443
000100 13 d2 df 3f be d2 b9 3f 00 6e 8e 3e b8 fa c3 3e
       1.7485985 1.4517438 0.27818298 0.3827722
000110 96 13 a2 be ed fe 8f 3f 38 20 ec 3f 62 0f d5 3f
       -0.31655568 1.1249672 1.8447332 1.664532
000120 7e 2b 30 bf 8a ef 47 bf 11 0c eb 3e b4 6d 94 3f
       -0.68816364 -0.7809988 0.45907643 1.1595979
000130 83 c2 c8 3c f0 09 29 c0 9c a0 49 3f 45 6a 0f 3d
       0.024506813 -2.6412315 0.78760695 0.035013456
000140 2a ed b1 bf 4a cb 3b c0 59 82 db bf df 43 0b 40
       -1.3900502 -2.9342828 -1.7149154 2.1760175
000150 4c b2 c1 3f 1d 0d 6b bf a6 c4 1d 3d 9f a0 06 3f
       1.5132537 -0.91816884 0.038517617 0.5258884
000160 bc 5f 4f 3f e0 d3 6e 3d ec ed d1 3e a3 bb a2 3e
       0.81005454 0.05830753 0.41001832 0.3178378
000170 ab cd 83 3f 23 32 f3 3f 28 bc ff 3e b2 ad c9 bf
       1.029714 1.8999676 0.4994824 -1.5756133
000180 4b 2c 6b 3e be da 7c bd cb cc 15 3f 4e f2 a8 3c
       0.22966115 -0.061732046 0.58515614 0.020623352
000190 ce e9 cb bd e6 ed c1 be 0d 2e c4 be a9 f1 e1 3f
       -0.09956704 -0.37876815 -0.38316384 1.7651874
0001a0 a8 8f 9d 3e ae f0 12 3f 96 38 15 3f ed 4e a9 3e
       0.30773664 0.573985 0.5828947 0.33068028
0001b0 b6 98 ac be 6c ac b7 3f 1e 8e 25 40 3c 70 5d bf
       -0.3371026 1.4349494 2.5867991 -0.8649938
0001c0 26 13 14 bf f5 91 92 3e 8b d7 25 bf 0d 87 df 3e
       -0.5784172 0.2862698 -0.6478202 0.43657723
0001d0 0b bd fc 3e bd 08 d9 bd e8 a3 f3 bc 47 e4 21 3f
       0.49362978 -0.1059737 -0.029741243 0.6323895
0001e0 97 3e cc be 02 19 71 be f3 c7 28 bf 25 57 4d 3c
       -0.39891502 -0.23544696 -0.659301 0.012532984
0001f0 b7 75 10 3e c0 f3 e1 3c f0 7d 97 3e ac 6a 31 be
       0.14107405 0.02758205 0.2958827 -0.17325848
000200 a8 70 05 3f 13 43 72 bf 3a f0 fa bd 26 95 c4 3e
       0.52125025 -0.946336 -0.12252851 0.3839504
000210 cf 54 03 bf 96 5b f3 bf 1f cb bc bf 4d a2 ee 3e
       -0.5130128 -1.9012325 -1.4749488 0.466082
000220 f2 37 a9 bf c3 57 92 3e b4 c2 17 bf ca 7a f2 3d
       -1.3220198 0.28582582 -0.5928147 0.118398264
000230 a2 96 49 3e 5f 98 90 be 7e e9 c3 3e 7b 5c 42 bf
       0.19686368 -0.2824125 0.38264078 -0.75922364
000240 29 be 71 3d 4d 6b a6 be e7 b4 9c be bb e2 19 3f
       0.05901924 -0.3250374 -0.30606768 0.6011159
000250 5f c1 41 3e 77 d4 30 bf 85 21 5b 3e b5 df 8d 3f
       0.18921421 -0.69074196 0.21399505 1.1083895
000260 f7 8b ac 3e 41 e1 41 3e af c0 18 40 27 ec 8f bf
       0.33700535 0.18933584 2.3867605 -1.1243943
000270 54 27 20 bd ec 73 26 3e 2c 61 aa bb c2 ac f5 3e
       -0.039100006 0.16255158 -0.005199572 0.47983366
000280 ff 8c dc 3d 72 cf 88 be 9e e2 4b 3e 20 48 0d 3f
       0.1076908 -0.26720768 0.19910666 0.5518818
000290 0d 22 6c 3e fd af ba 3e 49 3d 97 3e c1 59 99 3d
       0.23059864 0.36462393 0.29538944 0.07487822
0002a0 a8 53 18 3d cc 54 27 3f dc 85 80 bf de d9 dd 3e
       0.037189156 0.65363765 -1.0040851 0.43330282
0002b0 ac 7b c5 be 92 92 88 bd ad 1d a1 bf 92 ca 2f 3f
       -0.38570917 -0.06668581 -1.2587181 0.6866847
0002c0 57 32 95 be c5 6e fb 3e 77 a8 93 bf 8e 47 a6 3e
       -0.2913997 0.49107948 -1.1535786 0.32476467
0002d0 4f 8f 58 3f 24 a6 3d bf d8 d8 57 bf de 6d 69 3f
       0.8459367 -0.74081635 -0.8431525 0.9118327
0002e0 a6 5e e2 3e 82 aa 37 be a0 d7 d1 3e cb 21 3b bf
       0.44212836 -0.17936137 0.4098482 -0.7309844
0002f0 6f 6a aa 3e 0b 46 aa 3e e5 f6 a4 bd 48 f6 fe be
       0.33284327 0.33256564 -0.08054904 -0.49797273

lstm1.weight_hh_l0 f4 [16, 4]
000000 8e c9 96 bf 2b d5 15 c0 44 b2 ba 3f c8 46 6c be
       -1.178026 -2.3411357 1.4585652 -0.23073876
000010 c8 ae 7e 3f fa 9c 2d bf 70 8b c2 3f e9 3d 70 3f
       0.99485445 -0.6781765 1.5198803 0.9384447
000020 87 43 0e be 0b cf 06 3f 6b 8e bb 3f 05 fd 9e 3f
       -0.13892947 0.5265967 1.4652838 1.2420965
000030 d2 2d ec be 7f 83 58 be ec d6 16 c0 ab 45 b0 bf
       -0.46128708 -0.21143912 -2.3568678 -1.3771261
000040 50 6e 0d 3f 88 1e 82 bf 1a ef 7e 3f 8b 04 bc bf
       0.5524645 -1.0165567 0.9958359 -1.4688886
000050 75 a2 9a 3e b6 5b b8 3f af 48 ae 3f e3 b4 8f bf
       0.3020207 1.4402988 1.3615931 -1.1227077
000060 ac 52 a8 3e 23 e5 08 bf 95 08 ad be 53 1f 26 3f
       0.32875574 -0.53474635 -0.3379561 0.64891547
000070 31 30 3d bf 31 1f 71 3f 66 8d 31 bf cd 7c 3b 3f
       -0.7390166 0.9418822 -0.6935638 0.73237306
000080 67 20 3c be 0b 40 0d c0 c8 0a 05 be cb c3 80 be
       -0.18371736 -2.2070339 -0.12992394 -0.25149378
000090 8b 60 80 3f d2 33 de be 54 fa d4 3e 96 a0 62 3e
       1.0029463 -0.4339891 0.41597235 0.22131571
0000a0 7c 9f 02 40 d7 3f 64 3f 47 92 ab 3e c1 a8 72 bf
       2.0409842 0.8915991 0.33510038 -0.9478875
0000b0 da 2b d5 3f 9d cf 5e bf cd b1 04 40 f4 d0 7e bf
       1.6654007 -0.8703554 2.073352 -0.9953759
0000c0 cb f8 73 3f 76 b2 c0 bf 09 4f 5a bd bb 83 90 c0
       0.953015 -1.5054462 -0.05329803 -4.5160804
0000d0 a1 6a 28 bf 07 2f 9c 3f 3f 5e 13 bf de b3 2f c0
       -0.657877 1.2201852 -0.57565683 -2.7453532
0000e0 f5 42 a0 bb 99 92 ca 3e a5 53 93 3f 10 49 99 bf
       -0.0048907944 0.3956497 1.1509901 -1.1975422
0000f0 cd 1a 7a 3f 65 ec 89 bf 0a be c3 bf 75 bb 65 bf
       0.97697145 -1.0775267 -1.529237 -0.8973916

lstm1.bias_ih_l0 f4 [16]
000000 55 13 1c bf 1d 38 1f bf 15 a1 11 3f 3a d2 2c 3f
       -0.60967 -0.62195 0.56886417 0.6750828
000010 9d 9a 91 3e 36 c2 ba 3f 3a 86 a0 3b 48 a8 be 3e
       0.28438273 1.4590518 0.0048988136 0.37237763
000020 e5 56 3e 3f 13 de a3 3e d8 ab bc be 14 3a 40 bf
       0.7435134 0.32005367 -0.36849856 -0.7508862
000030 da 30 16 3f 33 9f 7e 3f b8 f4 1e bf d8 5f e8 be
       0.5866829 0.9946167 -0.6209216 -0.45385623

lstm1.bias_hh_l0 f4 [16]
000000 58 72 49 3e bf 5b ac bf 81 fe 52 bd 0a be dc 3c
       0.19672525 -1.3465499 -0.051512245 0.026946086
000010 e2 9d 15 3f ce 37 9b 3f d6 7b f1 be 09 98 94 bd
       0.58444035 1.2126405 -0.47164792 -0.07255561
000020 89 a8 a8 3e cb 12 97 3e a7 95 29 bf a9 5b 1d bf
       0.32941082 0.29506525 -0.66243976 -0.6146799
000030 64 41 cd 3e 6e 76 d2 3f 94 ee 65 3d 59 32 64 3d
       0.40088952 1.6442392 0.05613573 0.055712078

batch_norm1.weight f4 [4]
000000 12 81 24 3f 4b 9b d1 3f 6a 06 bc 3f 1b f9 1e 3f
       0.64259446 1.6375517 1.4689457 0.62098855

batch_norm1.bias f4 [4]
000000 2a 65 ff 3b 40 9a 81 be 86 84 7e 3d 84 ad 12 be
       0.007794042 -0.25312996 0.062138103 -0.14324003

batch_norm1.running_mean f4 [4]
000000 83 3c d5 bb 6e 29 62 3f 47 eb 91 bd a0 95 91 be
       -0.0065074577 0.88344467 -0.07124954 -0.28434467

batch_norm1.running_var f4 [4]
000000 ef d6 b4 3b 47 65 8b 3a 03 bb 2d 3d 21 60 29 3d
       0.005518786 0.0010635041 0.042414676 0.04135144

lstm2.weight_ih_l0 f4 [32, 4]
000000 3e 23 ba be 31 36 b7 3f 85 17 79 bd 1a b4 c2 ba
       -0.36355013 1.4313413 -0.060813446 -0.00148547
000010 36 a9 43 3e 50 fa e3 be 73 f0 68 be 24 a5 86 3b
       0.19107518 -0.4452691 -0.22747974 0.0041090418
000020 05 cf 3c 3f b2 5b 59 bf 5d 34 1a be 5f 34 10 bc
       0.73753387 -0.8490554 -0.15059038 -0.008801549
000030 9c 25 da bd 46 09 cb be ec e7 d8 3e 37 b3 a0 bd
       -0.10651705 -0.39655513 0.42364442 -0.078466825
000040 d4 71 88 3e 96 b6 3e bf 3e 09 99 3d 8c 19 ac 3f
       0.26649344 -0.74497354 0.07472466 1.3445296
000050 7e 3c e7 3d 98 cf ba 3f 73 94 91 3e 5d f7 c3 3e
       0.11290835 1.4594603 0.2843357 0.3827466
000060 f3 ac c6 3d 6c a9 19 bf c7 a9 23 3e 97 84 11 3e
       0.09700956 -0.6002414 0.15982734 0.14210735
000070 aa 69 fb be e7 bf 6e 3f c3 8f 9f ba 5b 9b 00 bf
       -0.49104053 0.9326157 -0.0012173582 -0.50237054
000080 80 25 58 3d 8a 5f 6d 3e 82 c2 70 3e 06 ca 1c 3e
       0.052770138 0.23180977 0.23511699 0.15311441
000090 04 ef ac be 72 20 aa be d0 ff 3d 3d 40 94 ab bd
       -0.33776104 -0.3322788 0.04638654 -0.08377886
0000a0 e9 54 82 be 8e d8 44 3e d7 dc 7a be ea 5b 7c 3e
       -0.25455406 0.19223234 -0.24498306 0.24644437
0000b0 17 af a6 3e a0 e9 15 be aa eb 6a be 87 e5 95 3e
       0.32555458 -0.14639902 -0.22941461 0.29276678
0000c0 a0 16 df bd 14 75 af be b2 c8 22 be d0 ae e8 3d
       -0.10892987 -0.3426901 -0.15896872 0.11361468
0000d0 20 f6 bf bd 88 f4 d0 bd 8e 0a f9 bd 3b 7b a5 be
       -0.093731165 -0.10202891 -0.12160216 -0.3232058
0000e0 80 46 19 bd 9e ff 33 be 90 c1 a9 bc a0 46 19 bd
       -0.03742075 -0.17577979 -0.02072218 -0.03742087
0000f0 37 4a 94 be d0 f7 7e be d5 5b 42 be 44 59 8c 3d
       -0.2896287 -0.2489922 -0.18980344 0.068529636
000100 96 39 5c 3f df 91 b8 3e 90 94 af bf 0f 8c b1 bd
       0.8602537 0.3604879 -1.3717213 -0.08669292
000110 69 01 9a 3e 35 44 0e 3f 4b 23 47 bf 73 24 6a 3e
       0.300792 0.55572826 -0.7778823 0.22865467
000120 2f 02 e1 bd f5 24 86 be 25 21 e9 3f 83 6f 74 3d
       -0.109867446 -0.2620007 1.821324 0.05967666
000130 74 d8 f4 bd 3b fe 88 3f be 16 88 be 82 95 2a be
       -0.11955348 1.0702585 -0.2657985 -0.16658595
000140 4b f4 06 bf 22 6f 6f 3e a5 20 85 3f ca 5e 16 bf
       -0.5271651 0.23382238 1.0400587 -0.58738387
000150 9b 33 88 3c 40 38 48 3f bc 2a 35 3d 01 49 82 3e
       0.01662617 0.7821083 0.044230208 0.25446323
000160 7d dd a9 bd 68 f3 2e bf 81 c7 99 3f 85 a0 1a bf
       -0.08294199 -0.6834016 1.2014009 -0.60401183
000170 c4 64 e4 be 0f 87 d9 3e 38 fa d2 3d ba 93 fc 3e
       -0.44608128 0.42485854 0.10301632 0.49331456
000180 7e 02 58 bf cc 2f c5 3e a1 a2 2f bd 3b 99 41 bf
       -0.843788 0.3851303 -0.042879704 -0.75624436
000190 f6 df 01 3f bb 9d 19 bf b5 7d a7 be a7 d7 87 3e
       0.5073236 -0.600063 -0.32713094 0.26531717
0001a0 e7 ea 34 3e f7 2f 90 bf df f1 06 3e 0a 09 01 be
       0.17667733 -1.1264638 0.13178204 -0.12601104
0001b0 36 e9 22 3e 8d bc f4 be 29 5d 6b 3f dd 52 d2 3d
       0.15909275 -0.47800103 0.91939026 0.10269711
0001c0 8f c2 76 3e e9 9a 8a bf 8f 29 40 3e c0 b7 10 be
       0.24097656 -1.0828525 0.18765853 -0.14132595
0001d0 f8 ab 19 be 9e f4 8d 3f 1f e0 81 bd f5 d4 ce be
       -0.15007007 1.1090276 -0.06341576 -0.40396848
0001e0 c3 00 9c 3e f2 88 6a bf d0 bf 8a 3d ee 03 1e 3f
       0.3046933 -0.9161521 0.067748666 0.61724746
0001f0 46 59 ba be 97 98 45 3f 5f 57 9c bc 19 24 68 3e
       -0.36396235 0.7718596 -0.01908463 0.2267002

lstm2.weight_hh_l0 f4 [32, 8]
000000 6e 0f 1e 3e 20 b4 0f be e7 8d 9e be 9a 20 78 3e
       0.15435573 -0.14033556 -0.30967638 0.24231187
000010 a1 4c b0 3e cd 43 90 3e 4a 08 f4 bd b8 59 36 3d
       0.34433463 0.28176728 -0.119156435 0.044519156
000020 97 8f ac 3e 95 97 10 be 61 3d a7 3e dd ed 8e be
       0.337033 -0.14120324 0.32664016 -0.2791585
000030 19 c5 a2 3e a4 09 98 be 5a e9 17 3e 00 20 2d bd
       0.31791 -0.29694855 0.1483511 -0.042266846
000040 ed 7a a3 3e 00 64 e2 bb 97 52 7c be 7e e9 3a 3e
       0.31929722 -0.0069088936 -0.2464088 0.18253133
000050 38 7e 13 bd 00 94 2b bb 49 07 54 be 76 f4 a5 be
       -0.036009043 -0.0026180744 -0.20705904 -0.3241307
000060 a0 01 52 bd 53 62 a9 3e 9b 06 55 be 04 b6 a5 be
       -0.05127108 0.33082828 -0.20803301 -0.3236543
000070 c0 53 82 bc c5 61 a2 3e 0f ce a3 3e a7 fe 21 be
       -0.015909076 0.31715217 0.31993148 -0.15819798
000080 6f aa ae be 83 a9 75 be e5 63 8a 3e 10 81 6f be
       -0.34114406 -0.23990445 0.27029338 -0.23389077
000090 1e 3e 77 3e 8a a8 fb bd 30 99 d4 bc e4 1c 42 be
       0.2414479 -0.12288006 -0.025951952 -0.18956333
0000a0 c2 1d 81 be 85 68 50 be 96 1e 43 3e e2 53 33 3e
       -0.25218016 -0.20352371 0.19054636 0.17512468
0000b0 e4 20 9e 3d b0 9e c1 3d fe 29 6c be 00 ce 26 bd
       0.07721117 0.09454095 -0.23062894 -0.0407238
0000c0 cd 99 88 be 1a c9 19 3e 9a f0 6e be 38 c6 14 bd
       -0.2667984 0.1501812 -0.2333397 -0.03632185
0000d0 c5 3a 98 be 2e bf ac be 07 e8 66 be 72 f0 36 3e
       -0.29732338 -0.3373961 -0.22549449 0.1786516
0000e0 88 b2 71 3d d8 ea f1 bd 70 1c 78 bd 16 39 8a be
       0.05900815 -0.11812371 -0.060573995 -0.26996678
0000f0 e0 9e 7c bc 0e 87 e4 bd 40 c6 d2 3c 0f da 04 be
       -0.015418738 -0.11158572 0.025729299 -0.12973808
000100 83 56 8c 3e 2e 50 22 3e 16 d9 3d 3e 00 8d 85 bb
       0.27409753 0.15850899 0.18539843 -0.0040756464
000110 50 59 c3 3c 87 e4 81 3e 66 bf 8c be ee 33 25 3e
       0.023846298 0.25369665 -0.27489775 0.16133091
000120 20 8c 6e be f3 2d 87 be 00 52 53 bd 68 77 7e bd
       -0.23295641 -0.26402244 -0.051591873 -0.062125593
000130 f0 c4 c0 3d 05 17 a3 3e bf 45 9b 3e 78 48 15 be
       0.09412563 0.318535 0.3032665 -0.14578426
000140 51 c2 9b 3e 50 d0 6b be a3 28 ac 3e e4 7a 80 3d
       0.3042169 -0.23028684 0.33624753 0.062734395
000150 90 57 0f 3d cc 27 cf 3d 90 14 ea bd 7a bd fd bd
       0.034995615 0.101150125 -0.11429703 -0.123896554
000160 3c d2 1f be 84 ea 4a be e0 ea 51 3d 7b 21 86 3e
       -0.15607542 -0.19816023 0.051249385 0.2619742
000170 52 81 2b be 0e 29 7f be a2 bc 28 3e d7 90 83 3e
       -0.1674855 -0.24918005 0.16478208 0.25696442
000180 05 fc a1 3e 8e 95 2c be d8 0e e3 3d d7 34 62 be
       0.31637588 -0.16853926 0.110868156 -0.2209047
000190 c0 04 7f 3c d2 a1 76 be 76 5a 03 3e f2 91 16 3e
       0.015565097 -0.24085167 0.12827477 0.14704111
0001a0 05 78 0b be dd a7 3d be 60 14 22 3c f7 ff 7e be
       -0.13620003 -0.18521066 0.009892553 -0.2490233
0001b0 87 e1 5a be 75 e0 94 be bd 54 80 3e d9 4c 81 3e
       -0.21375094 -0.29077497 0.2506465 0.25253943
0001c0 11 ad 65 be 50 12 4d be 28 b4 99 be 7d 42 b3 be
       -0.22429301 -0.20026517 -0.3002026 -0.35011664
0001d0 e4 25 87 3d da 5b 4a 3e b3 23 15 be 80 81 a3 bd
       0.06599024 0.19761601 -0.145644 -0.079836845
0001e0 d8 e5 35 be 94 5d c5 bd 3a f4 68 be 66 cd ea bd
       -0.1776346 -0.09636989 -0.22749415 -0.11464958
0001f0 15 3c 9f 3e a7 21 55 be 2a e6 48 3e d8 d1 e7 3d
       0.31100526 -0.20813619 0.1961905 0.113193214
000200 43 2a 9b 3e a0 cf 87 bd 73 c1 af 3e 70 19 19 3d
       0.3030568 -0.06631398 0.34327278 0.037377775
000210 dc d9 a6 3d ac 9a 98 be f0 05 65 3d 8c 53 a9 3d
       0.08147022 -0.29805505 0.055913866 0.082678884
000220 1a 4b 31 3e ae 59 e1 bd f4 fa 88 3d 1c b1 8a 3d
       0.17313805 -0.11003433 0.066884905 0.06772062
000230 30 86 0e 3d 0e b3 88 be f2 16 9f be bf ce 98 3e
       0.03479594 -0.26699108 -0.31072193 0.29845235
000240 00 08 a4 39 a0 04 43 bd 04 43 9e 3d 08 e2 19 bd
       0.00031286478 -0.047611833 0.07727626 -0.037569076
000250 de 78 3b 3e 95 f7 01 be 00 64 d9 3d 2c b4 fa bd
       0.18307826 -0.12692101 0.106147766 -0.12241396
000260 4a ce 29 3e 16 71 5c 3e 53 ca 9e be bb 3e 1a be
       0.165826 0.21527514 -0.31013736 -0.15062992
000270 4a 05 3b 3e 6e 81 29 be 4a 9b 04 3e fe a0 1c 3e
       0.18263736 -0.1655328 0.12949863 0.15295789
000280 13 34 1b be 32 3d 24 3e e2 66 35 be c1 3b 96 3e
       -0.15156583 0.16038969 -0.17715028 0.29342464
000290 42 f1 69 be b2 e5 42 be 70 f9 d2 3c a6 98 96 be
       -0.22845939 -0.19032934 0.025753707 -0.29413337
0002a0 3e 33 50 3e b6 92 3c 3e b2 25 9a be f0 1b 8b 3c
       0.20332047 0.18415341 -0.30106884 0.016981095
0002b0 b7 36 ac 3e c0 d7 6f be cc e7 aa be 54 9d c1 3d
       0.33635494 -0.23422146 -0.33379972 0.09453836
0002c0 2b 19 a2 be 6d cb 9c 3e 10 bd a8 bc 9e ef 8e be
       -0.31659827 0.30623952 -0.020597965 -0.27917188
0002d0 81 5f 87 3e c1 ca 7c be 72 59 99 be 40 47 04 3d
       0.2644005 -0.2468672 -0.29951054 0.03229451
0002e0 8c 2b f1 bd e0 af ca bd a8 33 42 bd 8b 8a b0 3e
       -0.11775884 -0.09896827 -0.047412544 0.344807
0002f0 e1 14 9b 3e e2 6d 71 3e b4 09 90 be 1d 19 a4 be
       0.30289367 0.23577073 -0.28132403 -0.3205041
000300 5f 01 90 be 48 40 8b bd 4e df 4f 3e 3c b8 c0 3d
       -0.28126046 -0.0679937 0.20300028 0.0941014
000310 aa fa 95 be 00 07 0a 3d 4b e7 45 be 30 4d a3 bc
       -0.29292804 0.033698082 -0.19326513 -0.019934267
000320 97 c9 b2 be 95 b7 26 be fe 8f 08 3e b0 5e 21 bd
       -0.34919426 -0.16280968 0.13336179 -0.03939694
000330 1a 24 21 3e e0 f2 e3 3d 71 85 3a be 70 36 30 3d
       0.15736428 0.11130309 -0.18214966 0.043020666
000340 32 f7 46 3e 73 38 99 be f4 18 cd 3d 6e 05 31 3e
       0.19430235 -0.2992588 0.10014525 0.17287228
000350 51 82 ae 3e 86 3a 75 3e 4c 51 ec 3d 00 10 78 3c
       0.340838 0.23948106 0.11538944 0.015140533
000360 c0 9a bd 3b 65 41 9b be eb d6 9d 3e 4a d2 4d 3e
       0.00578627 -0.3032333 0.30828032 0.2009975
000370 ee e8 6c 3e e8 a9 a8 bd 9d 69 9b 3e 7b 6d 00 be
       0.2313573 -0.08235532 0.30354014 -0.12541763
000380 c0 1f a4 3d 79 55 9a 3e 99 0d 97 3e aa 77 55 3e
       0.08013868 0.30143335 0.29502562 0.2084643
000390 89 d5 a8 3e a2 28 57 3e 37 34 35 be 1b 57 98 be
       0.32975414 0.21011594 -0.176957 -0.29753956
0003a0 ea 31 16 be 40 fc 6b 3d b0 d3 46 be e1 d0 3a be
       -0.14667478 0.05761361 -0.1941669 -0.18243743
0003b0 a0 9a be 3d 50 22 fc 3c ea 7e 0d be ac 2e 97 bd
       0.09306836 0.03077808 -0.13817945 -0.07381949
0003c0 e4 2e 3f be b2 9f a7 be 70 d9 b1 3c ba 22 3a 3e
       -0.18670231 -0.32739025 0.021710128 0.1817731
0003d0 0d b2 87 be c0 b9 51 bc c2 3e 08 3e ba ab 05 3e
       -0.2650303 -0.012800634 0.1330519 0.1305379
0003e0 a0 6a ab 3d d6 96 54 3e 54 65 99 be d0 f4 86 bd
       0.083699465 0.20760664 -0.2996012 -0.06589663
0003f0 da e5 3e 3e 30 a6 53 be 66 41 78 be 4f 5d 96 be
       0.18642369 -0.20668864 -0.24243698 -0.29368064

lstm2.bias_ih_l0 f4 [32]
000000 cb fc 1d be f2 63 41 3f 28 a9 3f 3e 13 a9 1b 3f
       -0.15428464 0.7554313 0.18716872 0.6080486
000010 a4 96 0e bf b4 a8 6e bf c9 25 d5 3e df a9 bb 3e
       -0.5569861 -0.9322617 0.4163039 0.3665304
000020 5c 56 b1 bd 24 ab b4 be 4e 23 6d 3e 32 fd eb bd
       -0.0865905 -0.3528682 0.23157999 -0.115229025
000030 d0 76 78 3d 80 da 38 be e1 1d ad 3e 77 9f 92 3e
       0.060660183 -0.18052101 0.33811858 0.28637287
000040 09 e3 92 be 47 b7 a4 3d cc d3 ed bd 48 7c 54 bf
       -0.2868884 0.0804277 -0.11612663 -0.8300214
000050 66 3b 93 be 2c 84 22 3f 3e 63 b9 3e ce 04 59 3f
       -0.28756255 0.6348293 0.36208528 0.84772956
000060 31 56 10 be 33 6b 1c bf 45 4b 5d 3e e5 14 02 be
       -0.1409538 -0.61101073 0.21610744 -0.12703283
000070 76 11 94 3e f1 63 be bf 0a eb 1f be 73 e1 16 3f
       0.28919572 -1.487425 -0.15617004 0.5893776

lstm2.bias_hh_l0 f4 [32]
000000 65 e0 44 bf 75 2c 0a 3f 3a a9 e8 3e 63 b9 3a 3f
       -0.769049 0.53974086 0.4544161 0.7293913
000010 7c ba 65 bf 11 5b 84 bf cc 1b 30 3f c8 30 88 bd
       -0.8973768 -1.0340291 0.68792415 -0.06649929
000020 22 01 32 be e8 09 13 3d d6 a5 a7 be 6e 14 69 3e
       -0.17383245 0.03589812 -0.3274371 0.227617
000030 55 52 9d be b8 e5 57 3d 40 7c f4 3c 05 bf ab be
       -0.30726877 0.05270931 0.029844403 -0.33544174
000040 b9 9e 9d bd 9b 32 3c bc aa 52 c9 be ac 7e 71 bf
       -0.076962896 -0.011486675 -0.3932088 -0.9433391
000050 f4 86 b9 be a2 f8 4b 3f a6 44 58 3e f3 62 09 3f
       -0.36235774 0.7967626 0.21119937 0.5366661
000060 43 f5 30 3d 29 95 7a bd a7 30 3a 3e b7 f1 16 be
       0.04320265 -0.061177406 0.18182622 -0.14740644
000070 5d 94 18 3f 8b c9 d8 bf 13 4f 38 3d 83 d1 4a 3f
       0.59601384 -1.6936506 0.044997286 0.7922594

batch_norm2.weight f4 [8]
000000 9f b5 31 3f 11 5f 02 3f bd 2c ae 3f 51 88 eb 3e
       0.69417757 0.5092631 1.3607403 0.4600244
000010 02 3a 9c 3f 81 47 9e 3f 36 2c ec 3f 6e 54 90 3f
       1.2205203 1.2365571 1.8450992 1.1275766

batch_norm2.bias f4 [8]
000000 2b 38 12 3f 48 d3 2b bf 84 3c 6c bf 8b 9e 18 be
       0.57116956 -0.67119265 -0.9227984 -0.1490423
000010 34 78 e9 3d b8 72 75 bf fa df b0 3f 64 d9 5e bf
       0.1139988 -0.9587817 1.3818352 -0.8705046

batch_norm2.running_mean f4 [8]
000000 23 f5 4b bc 29 82 46 bd 7b 07 9b 3c 54 0b 93 be
       -0.012448582 -0.048463974 0.018924465 -0.2871958
000010 1a fa 7e bd 55 2d 23 3d f0 20 43 3e 9a 1c a5 3e
       -0.062250234 0.039838154 0.19055533 0.32248384

batch_norm2.running_var f4 [8]
000000 d5 7c 26 3d a0 9c 7b 3d 05 f0 17 3e 46 45 68 3d
       0.040646393 0.061428666 0.14837654 0.05670669
000010 7b b6 1c 3d c4 c8 f6 3b b7 0b c3 3d a6 05 7c 3d
       0.038259964 0.0075312573 0.09523719 0.061528824

dense1.weight f4 [32, 8]
000000 98 2b b5 be 20 95 f4 bb 16 85 c0 3d 21 4c 51 be
       -0.35384822 -0.007464066 0.09400384 -0.20439197
000010 5e 39 48 3e a1 10 99 3f e6 59 da be 61 8c b7 3f
       0.19553134 1.19582 -0.42646712 1.4339715
000020 ca 7e bf 3d ec 04 c9 be 85 0b 54 3f 17 9c ca bd
       0.09350355 -0.39261568 0.8283008 -0.09893053
000030 13 cc 27 3f e2 96 de 3e ed 01 81 3f 2f f8 d9 3e
       0.6554577 0.4347449 1.0078713 0.42572162
000040 4d f2 03 3f b3 08 50 bf 4f 51 99 3f 32 d6 8e 3d
       0.51541597 -0.81263274 1.1977938 0.06974448
000050 6e 03 f0 3e b2 f7 e9 be 61 89 97 3f d2 47 54 3c
       0.46877617 -0.4569679 1.18388 0.012956576
000060 b2 c4 5d be 12 2a 12 bf 7c e3 65 3d 9a dd 2a be
       -0.21657065 -0.57095444 0.05612515 -0.16686097
000070 a7 ab 2f 3e 87 aa 28 3f af d3 5d 3f 26 18 a0 3e
       0.17155324 0.65885204 0.8665113 0.31268424
000080 f4 d8 75 be 98 03 af 3b 74 e5 9e be c7 b3 ea 3e
       -0.24008542 0.0053410046 -0.31034434 0.45840284
000090 09 06 a6 3d ff ef 0a be 8f 36 d6 be 3c be 09 be
       0.0810662 -0.13568114 -0.418385 -0.13451475
0000a0 f6 22 cc be f0 35 14 bf 93 20 54 3f 55 68 79 bd
       -0.39870423 -0.578948 0.82862204 -0.060890514
0000b0 66 1d e2 3e 6d 61 fc 3e d4 fb 95 3f 1a 8e c9 3e
       0.44163054 0.4929308 1.1717477 0.39366227
0000c0 66 c0 6a 3c 6c fb a0 bd 32 53 c7 be 07 0f 15 3f
       0.014328098 -0.07860455 -0.3893066 0.58226055
0000d0 f2 6d a9 bc a3 47 15 be 1d 96 c8 bd e2 8f 0b bf
       -0.020682309 -0.14578108 -0.09794257 -0.5451642
0000e0 c8 e6 5f 3f c1 55 19 bf 35 5d 33 3f ec 30 06 bf
       0.8746152 -0.59896475 0.700641 -0.524184
0000f0 47 68 99 be 2f 37 51 bf f5 e5 83 3f 94 17 11 bf
       -0.2996237 -0.8172483 1.0304552 -0.566766
000100 e4 93 16 3e aa 7e b3 3d 9c 7f 47 3e c6 c0 af 3e
       0.14704853 0.08764394 0.19482273 0.34326762
000110 eb d0 51 be b0 32 5e be 1a 38 9e bf 80 44 12 3f
       -0.20489852 -0.21699023 -1.2360871 0.5713577
000120 1a be 93 be 0b bb 43 3e 7e 8f ea 3e f4 0e 5f be
       -0.28855973 0.1911432 0.458126 -0.21783048
000130 72 b2 d9 3d b6 56 5c be cb ba 98 3f 89 8f 32 bd
       0.10629739 -0.21517453 1.1932005 -0.043593917
000140 52 6f 97 bc e5 8e 29 bd de 58 c6 bf 52 fb df bd
       -0.018485699 -0.04139604 -1.549587 -0.109366074
000150 68 c0 22 bf 8e 8d 1d bf b5 a1 04 bf d9 de 89 be
       -0.6357484 -0.6154412 -0.51809245 -0.26927832
000160 8d 53 09 3e f6 59 63 be fc fb 28 3e eb 4f d7 be
       0.13410778 -0.22202286 0.16502374 -0.4205316
000170 a1 b0 5a 3f 34 c3 5d 3e 5a 28 fe 3e 11 a2 e5 3d
       0.85425764 0.21656495 0.4964016 0.11212552
000180 d0 93 4a bd d9 30 8a bd ab 59 0d 3f e7 18 5a 3e
       -0.04945737 -0.06747598 0.5521495 0.21298562
000190 23 c7 7b 3f 7f 01 2e 3f f0 c4 db 3e 1a 79 74 3f
       0.98350734 0.6797103 0.4292369 0.95497286
0001a0 ca 5e d7 be 5a 21 d7 3e 96 22 93 be 6e 05 31 3f
       -0.42064506 0.42017633 -0.28737324 0.6914891
0001b0 8c 5a 20 bf b3 87 21 3f c5 13 a9 bf 20 cc c1 3e
       -0.62638164 0.63097686 -1.3209158 0.37851048
0001c0 bf 34 10 3e 67 24 ae be 18 a6 9e 3f c6 9f 0c bd
       0.14082621 -0.34012148 1.2394438 -0.03433206
0001d0 f1 a8 34 3e ae 4c d9 3d e1 ed 52 3f 6e cd db 3e
       0.17642571 0.106103286 0.82394224 0.42930168
0001e0 01 d1 95 3d 3b 06 30 bf fe 74 4e 3f ce 14 5e be
       0.07315255 -0.68759507 0.80647266 -0.21687624
0001f0 8d 62 75 3f 66 92 b5 3e d7 32 20 3f 5d 56 6d 3e
       0.958535 0.35463256 0.62577575 0.23177476
000200 10 8d 56 be ea 5b 4d 3e 8b c1 98 3e 0c ee 04 3f
       -0.20952249 0.20054594 0.29835162 0.5192573
000210 c4 63 15 be c2 a5 61 3f e3 23 62 bf f7 2a 3c 3f
       -0.14588839 0.8814355 -0.8833601 0.7350306
000220 c1 15 fe 3f 41 13 60 3e d9 75 f2 3e f3 bb 78 3e
       1.9850389 0.21882345 0.47355536 0.24290447
000230 17 71 cf 3d 1e f0 14 3e 23 fe a1 be 2c 1f 68 3e
       0.10128992 0.14544722 -0.31639203 0.22668141
000240 c6 af 21 be 35 25 11 bf 60 14 31 3f 54 a9 da 3c
       -0.15789708 -0.566974 0.69171715 0.02669207
000250 83 ab 72 3f 50 95 1b 3f b7 af 3e 3f 22 fa 34 3f
       0.94792956 0.6077471 0.7448687 0.7069417
000260 f5 7f 16 be 2a 39 5d bc 96 25 17 3f 7d c7 1d 3d
       -0.14697249 -0.0135023985 0.59041727 0.038520325
000270 bf 2d 9a 3f 8a ad 62 3f b8 22 be 3e b9 4e 36 3f
       1.2045211 0.8854605 0.37135863 0.7121387
000280 58 02 5a 3f 55 be aa 3e 51 ad c5 3d f8 88 b5 3e
       0.85159826 0.33348337 0.09652198 0.3545606
000290 de a8 ba 3d 6b de a3 3f b3 18 9e be 26 25 23 3f
       0.0911424 1.2802252 -0.3087822 0.6372856
0002a0 36 6b 9f bf b2 83 35 bf 91 ac a5 3e 9b e2 0a bf
       -1.2454593 -0.70904076 0.3235822 -0.5425202
0002b0 af 75 72 3f b8 b9 11 bd 85 83 d1 3e 1c f0 92 3e
       0.9471082 -0.035577506 0.40920654 0.28698814
0002c0 db 92 66 bd 92 fe 60 3e 31 03 01 bf c8 a3 4f 3f
       -0.056292396 0.21972111 -0.50395495 0.81109285
0002d0 60 c4 86 be db f0 27 3d c1 1c 23 bf bb c5 23 3f
       -0.26321697 0.041001182 -0.6371575 0.6397359
0002e0 ce e5 32 be 59 78 8c 3d 37 96 cc 3c 34 b3 4a be
       -0.17470476 0.06858892 0.024973972 -0.19794923
0002f0 62 09 11 3f b1 d5 eb bb 9a f5 02 3f a4 28 d5 3d
       0.5665494 -0.007197105 0.5115601 0.10408142
000300 7d 04 25 3f 5d 8c b0 be 3f d8 02 3f 36 a7 c0 be
       0.64459974 -0.3448209 0.51111215 -0.37627572
000310 f1 12 a8 be fa 65 ac be b4 6f b9 3f 3b 42 36 bf
       -0.3282695 -0.33671552 1.4487214 -0.7119481
000320 6a 3e 26 be 99 0a 9c 3e 00 fd c9 bf 8c fe be 3d
       -0.16234747 0.30476835 -1.5780334 0.09325895
000330 a5 e2 79 bf af 50 e5 be 85 a2 91 be cc ef 99 be
       -0.9761146 -0.4478812 -0.28444305 -0.30065763
000340 87 09 cf bd e2 b4 59 3e 3b 1b d0 be 20 0f 1f 3f
       -0.10109239 0.21260408 -0.40645775 0.62132454
000350 cc 8d 57 bf 77 96 75 3e 64 d1 7c bf 07 0c ba 3e
       -0.8420074 0.23983179 -0.98757005 0.363373
000360 94 03 96 be 3e d2 c9 bd 7a c1 9e 3b c8 68 9d bd
       -0.29299605 -0.09854554 0.0048448415 -0.07686001
000370 95 3b f4 3e d6 54 e9 3f 3c 27 c9 bd 94 73 8f 3f
       0.47701707 1.8229015 -0.098219365 1.1207147
000380 fe 28 81 bf 72 76 fe be d8 44 37 3e ae b1 4f be
       -1.0090635 -0.49699742 0.17897356 -0.20282623
000390 02 e0 37 3f cb 06 24 3f 2b 2f 87 3f fa a7 b0 3e
       0.71826184 0.64072865 1.056127 0.34503156
0003a0 94 d7 da bd 9f f3 09 3e de b5 8c bf 9f 3e 01 3f
       -0.106856495 0.1347184 -1.0993001 0.5048618
0003b0 05 d7 30 bf fb 7f 3c be b9 16 53 bf 65 1d b4 be
       -0.69078094 -0.18408196 -0.8245655 -0.35178676
0003c0 d1 e5 7d bf f7 48 be be 3e 4b 24 3f 30 85 03 be
       -0.99178797 -0.37165043 0.6417731 -0.12843776
0003d0 ce 6f 5d 3f 5e 01 bc 3e 25 d9 45 3f 32 ab b1 3e
       0.86498725 0.36719793 0.7728446 0.34700924
0003e0 32 2b 44 3e 86 cb 3a 3d 91 b1 1f be 24 e3 82 be
       0.19157103 0.04560425 -0.1559508 -0.2556392
0003f0 c6 23 b6 3e ef 2f ba be 5c 94 be be 49 b7 c1 bd
       0.35574168 -0.36364695 -0.37222564 -0.09458787

dense1.bias f4 [32]
000000 77 ae 95 3e 01 14 55 bf 2c f1 4e bf b9 e2 81 bd
       0.2923467 -0.8323365 -0.8083675 -0.06342072
000010 f1 c0 68 3e 83 7b 0f be a6 62 d3 be 81 1f f6 3e
       0.22729851 -0.1401196 -0.412862 0.4807091
000020 be 15 e2 3e a9 ca 80 3e 64 1f e3 3e 11 f8 68 3f
       0.44157213 0.25154617 0.44359887 0.9100352
000030 9b 20 50 3f 38 19 82 3e b8 f3 83 3e 05 bc b7 be
       0.8129975 0.25409865 0.2577188 -0.35885635
000040 6f 61 fa be 4e 49 08 bf 36 cc 06 bf 87 56 a0 be
       -0.4890246 -0.53236854 -0.5265535 -0.31316015
000050 54 ec 4d 3d fe c7 e0 be 0f 5b b8 bd 0d 78 9b 3e
       0.05027421 -0.43902582 -0.09001743 0.3036503
000060 f2 1f ba 3e d6 78 ee be ab ff 2d 3e 48 d3 16 3f
       0.36352497 -0.46576566 0.16992061 0.5891614
000070 d2 a8 d7 3c ee 2c 87 bd 83 21 a3 be cc c0 8b 3b
       0.026325617 -0.066003665 -0.31861505 0.0042649265

batch_norm3.weight f4 [32]
000000 16 da 8d 3f 59 7a 29 3f ed 1c b5 3f a4 66 4e 3e
       1.108218 0.6620231 1.4149452 0.20156342
000010 2c 52 ac 3e 85 9e 23 3f d4 43 b8 3e 5e 45 ac 3f
       0.33656442 0.63913757 0.3598925 1.3458669
000020 6b 84 c8 3f 77 98 b3 3d 70 0d d0 3f 8c c3 e0 3e
       1.5665411 0.08769315 1.6254101 0.4389919
000030 bf f5 dd 3e 37 eb a7 3f da 7a 14 3f 29 09 54 3f
       0.43351552 1.3118657 0.57999957 0.8282648
000040 dc ee e7 3f 42 dd 68 3f 06 03 64 3f 91 69 12 3f
       1.8119769 0.9096261 0.89067113 0.5719233
000050 11 b5 e1 3f 9e 86 83 3f 9d 14 8a 3e 2f f2 82 3e
       1.7633382 1.0275457 0.26968852 0.25575396
000060 c3 ee a7 3f 5f 72 bd 3f 7e 2c d3 3f 56 bf b0 3f
       1.3119739 1.4800528 1.6497953 1.3808391
000070 bf 84 5b 3f 96 1f a2 3f cf 75 4f 3f 84 b5 7f 3e
       0.8574943 1.2665889 0.81039137 0.24971586

batch_norm3.bias f4 [32]
000000 16 7b ea 3b 90 0a 83 3f 5f 08 9a 3f 0f b4 bf 3d
       0.0071557863 1.0237598 1.2033805 0.09360515
000010 a0 ab 1d bf b5 18 1c 3f f2 05 54 bf 32 68 3c 3f
       -0.61590004 0.609752 -0.8282157 0.7359649
000020 d4 73 d2 bb fa 94 fa 3e 3f bd 81 3f f4 23 41 bf
       -0.006422499 0.48941785 1.0135878 -0.75445485
000030 a4 7c 53 3f 52 c1 65 3f 86 7c 5a 3f 48 6f 97 3f
       0.8261206 0.8974811 0.8534626 1.1830835
000040 c2 1b 6f 3e 85 9b 07 bf 45 ee 9a 3f a8 ab 9c 3f
       0.23350433 -0.5297168 1.2103964 1.2239885
000050 38 3f e0 be 08 3b a6 3e 52 cd 23 3e 23 20 14 bf
       -0.43798232 0.32466912 0.15996292 -0.57861537
000060 e1 ea 11 3e 92 7d 73 3f b9 3f 85 3f 5a d3 2e 3f
       0.14249755 0.9511348 1.0410072 0.68291247
000070 48 8c 2f 3f 96 96 9d 3f e3 27 05 3f b9 96 1b bf
       0.6857343 1.231158 0.5201399 -0.6077686

batch_norm3.running_mean f4 [32]
000000 9c c0 3b c0 83 78 1d bf cd 0c 77 3f 2e 6e f3 3e
       -2.933631 -0.6151201 0.9650391 0.47544998
000010 6a 59 6c bb 53 de d8 3d ca ef da 3e cc 45 57 40
       -0.0036064037 0.1058928 0.4276107 3.363635
000020 52 78 e5 bf 04 7a bc 3f e6 70 fd 3f cd d2 be 3f
       -1.7927344 1.4724736 1.9800079 1.4908081
000030 cb 7a 06 bf 65 ed 38 c0 7b f2 b7 3d 00 46 3f be
       -0.5253112 -2.8894894 0.08981796 -0.18679047
000040 2a 0e 72 c0 79 8a 5b bf 9a a9 7a bf 04 f4 e3 bf
       -3.7821145 -0.8575817 -0.9791504 -1.7808843
000050 82 40 04 c0 ea d3 f0 be 0a 71 b3 bf d9 d6 59 3f
       -2.0664372 -0.47036678 -1.4018872 0.85093457
000060 6a 65 59 40 b3 a3 69 3f 6c 9a da bf 3f c1 16 c0
       3.3968148 0.9126541 -1.7078376 -2.3555448
000070 4e cd 9c 3e 7d 9f 14 3d a8 f7 29 bf 72 09 5d 3e
       0.30625385 0.036284912 -0.6639352 0.21585634

batch_norm3.running_var f4 [32]
000000 07 a1 28 41 79 7c 21 41 4e 04 87 41 36 f0 7c 40
       10.539313 10.092889 16.877102 3.9521613
000010 20 f8 a5 3f 23 af 3c 41 8f 31 5e 3f 76 56 6b 41
       1.2966347 11.792758 0.8679437 14.708609
000020 a9 a8 e6 40 a0 d1 00 41 2f 35 2b 41 62 2d 58 40
       7.2080884 8.051178 10.700484 3.37777
000030 be 4d ed 40 15 2b 6e 41 cd 8d 12 41 e4 8b 10 41
       7.41574 14.885518 9.159619 9.034153
000040 e8 46 0f 41 32 12 46 40 39 a4 15 41 e6 9c 0b 41
       8.954811 3.0948606 9.352593 8.725805
000050 83 89 f7 40 da 24 d1 40 af ce dc 40 fc 94 df 3f
       7.735536 6.5357485 6.90023 1.7467341
000060 8c 19 84 41 3f ed 3f 41 3c bc 22 41 47 a3 41 41
       16.512474 11.995421 10.170956 12.102363
000070 4a 59 05 41 57 67 2c 41 47 b7 10 41 43 7d 20 3f
       8.334299 10.775229 9.044745 0.62691134

dense2.weight f4 [16, 32]
000000 0b 51 47 bf 61 c8 0b be 17 61 1a 3d d2 ad 1a bc
       -0.77858037 -0.13650657 0.03769025 -0.009440856
000010 04 45 74 be 64 dc 22 be 24 17 56 be d4 4c 01 3f
       -0.23854452 -0.15904385 -0.20907265 0.50507855
000020 13 56 6f bf c7 2f b6 bc 22 66 98 bd 03 06 38 be
       -0.93490714 -0.022239579 -0.07441355 -0.17971043
000030 6e 21 87 be 91 c7 b2 bf 45 29 c3 bd 72 6b 81 bd
       -0.26392692 -1.3967153 -0.09529356 -0.06319322
000040 a4 e9 f6 bf 16 0e d5 be c7 fc a7 be 3f 64 c9 bd
       -1.9290051 -0.4161231 -0.3281004 -0.098335735
000050 df eb d3 bf 85 7e 93 be a5 57 f3 be e7 90 92 3c
       -1.6556357 -0.28807464 -0.47527805 0.01789136
000060 40 d6 6d 3e 22 41 07 3e 29 db 7a bf c2 1f 14 bf
       0.23226261 0.1320844 -0.9799066 -0.5786096
000070 f5 5c 76 be 44 02 e1 bd 85 e2 67 be 61 60 89 bc
       -0.24058898 -0.1098676 -0.22645004 -0.01676959
000080 9d ed 9e be 6f 3a 64 3f c8 6c a7 3f 08 00 7d 3d
       -0.3104066 0.8915166 1.3080072 0.061767608
000090 ec 5a 78 be 92 f6 fd 3e db 73 01 bd ee cf 8a 3f
       -0.24253434 0.4960218 -0.03160463 1.0844705
0000a0 3e cb 30 3f fa 31 f0 3e c8 72 94 bf 9f a4 99 bc
       0.6906012 0.4691313 -1.1597528 -0.018755255
0000b0 23 19 7c 3e 9a cb 90 3d 93 89 48 3f d5 7a 0f 3f
       0.24618964 0.07070084 0.7833492 0.560468
0000c0 61 dc 34 bd a8 fe f9 3d b4 83 0a 3f 5c 6d 6c 3e
       -0.044155482 0.12206775 0.54107213 0.23088592
0000d0 9c 7f 0f be 0a c1 5a 3e ee 51 8a 3e e0 dd 01 be
       -0.14013523 0.21362701 0.27015632 -0.12682295
0000e0 e8 b4 6b 3f 37 ba 62 bf bc 38 2d be 63 0f c5 be
       0.92072916 -0.8856539 -0.16916174 -0.38488302
0000f0 0a 18 c9 3e 60 71 0f bf d9 93 b5 3e 29 a9 21 be
       0.39276153 -0.5603237 0.3546436 -0.15787186
000100 f6 f6 52 bf 3d e1 61 be df 68 99 3d 5d 3c e6 bd
       -0.8240808 -0.22058578 0.07490706 -0.11241982
000110 d0 28 82 bc fc f8 d0 be ee ec 4e be 61 38 02 3f
       -0.015888602 -0.4081496 -0.20207569 0.5086728
000120 2f cd 5b bf d7 d9 89 3c a3 f0 81 3d 13 5f 2f be
       -0.8585996 0.016827507 0.06344726 -0.17126112
000130 27 24 b4 be fc a1 95 bf b8 d4 a7 bd 09 9c be bd
       -0.35183832 -1.1690059 -0.0819487 -0.09307105
000140 92 c7 e2 bf 05 69 2d bf 30 56 89 be 6b f1 41 be
       -1.7717154 -0.6773837 -0.26823568 -0.1893975
000150 48 5f c8 bf a5 3b 42 be d0 96 cc be 28 52 1a be
       -1.5654078 -0.18968065 -0.3995881 -0.15070403
000160 1e 86 fb 3e 96 12 db 3d 12 c5 22 bf c1 bc f8 be
       0.4912576 0.10696904 -0.63581955 -0.48581508
000170 9e 02 89 be bb a3 6e be 28 6a 82 be 10 58 c7 bc
       -0.2675981 -0.23304646 -0.25471616 -0.024333984
000180 33 b3 ba be 9d 76 d6 be 28 75 0a bf 46 ff 34 3e
       -0.36464843 -0.4188737 -0.54085016 0.17675504
000190 fb e7 0b 3d 01 fe 73 be 21 3b 44 3e a3 e4 04 bd
       0.03415678 -0.23827364 0.19163181 -0.032444607
0001a0 ee 91 d4 3e d6 d8 8d bd 1a 07 b1 3f ba 92 9a be
       0.41517586 -0.06926124 1.3830292 -0.30190068
0001b0 33 bd 08 bf 06 0c 8b 3e ac 3f 69 be 7c 84 31 bf
       -0.53413695 0.2715761 -0.22778195 -0.6934278
0001c0 70 eb 33 3d 1e b6 59 be 04 11 73 bf 0b ec 7c bf
       0.043925703 -0.21260878 -0.9494784 -0.98797673
0001d0 5b 3f fc bd 96 d8 46 bf 9d bb f2 3d d6 04 cc 3c
       -0.123167716 -0.77674234 0.11852191 0.02490465
0001e0 e7 d7 30 3e 27 11 9e 3f 56 25 09 3f d8 8a 19 bf
       0.1726986 1.2348984 0.53572595 -0.59977484
0001f0 60 8f 0f bf 30 f6 82 3f e0 81 32 bf 14 01 b4 bd
       -0.5607815 1.023138 -0.69729424 -0.08789268
000200 23 55 af be 76 47 f5 3e 48 4e df 3e 26 e0 3a bd
       -0.34244642 0.47906083 0.4361441 -0.04562392
000210 fb 92 9c 3c 6e 07 8d 3e 59 53 4f 3d ff 28 2d 3f
       0.019113054 0.2754473 0.050616596 0.6764068
000220 5f d6 a2 be 28 cc c7 3d 00 6b 86 bf 36 44 79 bd
       -0.31804177 0.097557366 -1.0501404 -0.060856067
000230 ce df 58 3e ba 22 6a bf 81 d3 cd 3e 26 19 fb 3e
       0.21179125 -0.9145924 0.40200427 0.49042624
000240 e0 a9 3a bf 9f fc 82 3d f9 34 f4 3e 06 f9 67 3e
       -0.7291546 0.0639584 0.47696665 0.22653589
000250 0e 6b ed be 80 5e 12 3e e2 ea e7 bd 9f bd c8 3c
       -0.4637074 0.14293861 -0.11324097 0.02450448
000260 4b 42 01 3f e0 8c 49 bf 03 72 a6 bf d8 f7 75 be
       0.5049178 -0.78730583 -1.3003544 -0.24020326
000270 a0 74 02 3e 86 0c 7b bf 5d 7c c3 3e e0 50 47 bd
       0.12739801 -0.98065984 0.3818082 -0.048661113
000280 62 98 df be 4e c3 21 bf 0a 2d 4d bf 03 d4 a1 bd
       -0.43670946 -0.63188636 -0.8014685 -0.07901766
000290 eb cc 84 bd 57 8e 9e be e0 5b 6a bd 27 7b 13 be
       -0.064843975 -0.30967972 -0.057216525 -0.14402448
0002a0 93 0c 91 3e b1 05 e8 bd 2e 48 3c 3f e4 63 02 bf
       0.28329906 -0.113292105 0.7354764 -0.5093367
0002b0 a4 80 70 bf 94 e6 87 3e 58 49 9a bd b4 7c 8a bf
       -0.9394629 0.26543105 -0.075335205 -1.0819306
0002c0 fb ff cb 3c 46 d5 fe bc c9 26 97 bf f5 d1 8b bf
       0.024902334 -0.031107556 -1.1808711 -1.0923449
0002d0 2b c3 36 be fe 93 85 bf 46 a2 52 3e 82 e2 28 be
       -0.17847888 -1.0435789 0.20569715 -0.16492656
0002e0 0e 3e d4 bd 39 d2 20 3f 0d a3 c4 3e e1 e6 90 bf
       -0.103633985 0.62820774 0.38405648 -1.1320459
0002f0 fc ed 3e bf 27 3e 25 3f 5e 83 76 bf 43 40 36 3d
       -0.74581885 0.6454796 -0.962942 0.04449488
000300 4f 38 32 bf de 0c 08 3f f5 fa 45 3f ca 15 50 be
       -0.6961717 0.53144634 0.77336055 -0.20320812
000310 e8 f2 d4 39 42 c6 de 3e 4c db 67 bd 76 5b 35 3f
       0.0004061677 0.43510634 -0.056605622 0.70842683
000320 12 15 79 3d d8 d0 b2 3e cd 62 a0 bf bf 07 74 3e
       0.06081111 0.3492496 -1.2530152 0.2383108
000330 84 79 91 3e 2e 27 b3 be 01 cb 26 3f b9 26 3d 3f
       0.28413022 -0.3499083 0.6515351 0.7388721
000340 18 1a 5d be aa 70 bf 3e 66 04 a6 3e 0a c7 95 3e
       -0.21591985 0.37390643 0.3242523 0.29253417
000350 a7 60 91 be 72 c9 60 3d 48 2c 10 3e 6f af ad bc
       -0.28394052 0.054879613 0.14079392 -0.021201817
000360 8f 54 70 3f 7f d0 93 bf ae e1 8a bf cd a9 e4 be
       0.93879026 -1.1548003 -1.0850122 -0.44660798
000370 5b 03 e1 3d 29 86 a5 bf 6d de 58 3e f5 1d c1 bc
       0.10986968 -1.2931567 0.21178599 -0.023573855
000380 e1 d5 1a be 6d 6f 24 bf 10 2b 92 bf 8a d5 f8 be
       -0.15120651 -0.6423252 -1.1419392 -0.48600417
000390 dd 0d a4 3d 99 da 3d bf 9f f0 5d 3c cb da 56 bf
       0.08010457 -0.7416168 0.013546138 -0.839276
0003a0 d3 06 43 3e 20 43 91 be c3 8e ab 3f 5e 2e 8e 3e
       0.19045572 -0.28371525 1.3402942 0.2776975
0003b0 86 6c ac 3d cd bf 9f 3e bd f4 4a bf 9c f1 0d bf
       0.08419137 0.3120102 -0.7927969 -0.5544679
0003c0 03 ae b1 bd d5 9b c6 bd e8 82 44 bf 83 35 62 be
       -0.08675768 -0.09697691 -0.7676225 -0.22090726
0003d0 cf f9 c2 be 4e b0 7b 3e af 01 16 3d 92 c0 87 3e
       -0.38081214 0.24578974 0.0366227 0.26514107
0003e0 2b 05 d8 be c7 8a a2 3f f7 92 06 3f a5 63 52 be
       -0.42191443 1.2698601 0.52568 -0.20545824
0003f0 b5 08 f6 be 8a ee 77 3f e5 e3 08 bf 91 b8 cc 3d
       -0.48053518 0.96848357 -0.5347274 0.09996141

dense2.bias f4 [16]
000000 ec 1c ef 3e 93 a4 54 3e 32 01 56 be 16 93 96 be
       0.46701753 0.20765905 -0.20898893 -0.29409093
000010 bf ab 53 3e 72 48 11 3f 4c ce e0 be a7 14 91 bd
       0.20670985 0.5675117 -0.43907392 -0.07084017
000020 c9 93 35 3d 8e 04 11 3e b2 2b 8d be 64 17 e7 bd
       0.044330392 0.14161894 -0.275724 -0.11283758
000030 c2 0b 93 3e da 59 b8 bd e2 26 10 bf 72 74 86 bb
       0.28719908 -0.09001513 -0.5630933 -0.004103237

batch_norm4.weight f4 [16]
000000 f6 65 0c 40 68 d7 05 40 07 df 04 40 ae 48 0e 40
       2.1937232 2.0912724 2.0761125 2.223186
000010 7e f2 08 40 73 dd 05 40 87 68 0f 40 9f 1d 10 40
       2.1398005 2.0916412 2.2407548 2.251808
000020 19 d1 0b 40 5c f2 ff 3f 6e 9d ff 3f ac db 07 40
       2.1846373 1.9995837 1.9969919 2.1227827
000030 a4 d6 03 40 b1 78 0a 40 cd 78 10 40 c6 4c 17 40
       2.0599756 2.1636164 2.257373 2.3640609

batch_norm4.bias f4 [16]
000000 67 16 f4 3f bd 25 a8 3f 95 5c f6 3f a1 43 f2 3f
       1.9069337 1.3136517 1.9247004 1.8926889
000010 de 82 fe 3f b4 0f 0e 40 ec 51 e3 3f 59 23 be 3f
       1.9883687 2.2197084 1.7759376 1.4854537
000020 cb 5a 06 40 9f b8 08 40 ce 0e 15 40 fc 15 07 40
       2.0992916 2.1362684 2.3290286 2.1107168
000030 9e 21 fb 3f 7c c0 01 40 2f 4a a3 3f b8 ef d9 3f
       1.9619634 2.0273733 1.2757014 1.7026281

batch_norm4.running_mean f4 [16]
000000 26 33 f6 c0 ed a7 9e 40 ea 54 f2 c0 e5 84 e6 bf
       -7.6937437 4.9579988 -7.5728655 -1.8009306
000010 d8 27 32 c0 5b 13 c9 c0 0f 93 d8 bf d5 ec 06 c0
       -2.7836819 -6.2836127 -1.6919879 -2.108205
000020 ea bb 0d c0 c1 dc a3 c0 69 57 04 c1 fc 37 bc c0
       -2.2145944 -5.1206975 -8.27134 -5.881834
000030 73 a0 92 c0 d3 a6 1d c0 14 b1 63 40 75 37 8f 3f
       -4.582086 -2.4633071 3.557683 1.1188799

batch_norm4.running_var f4 [16]
000000 b5 b5 8b 42 41 90 88 42 81 ee 6f 42 99 27 af 42
       69.8549 68.281746 59.982914 87.57734
000010 b9 02 ab 42 ab cb a1 42 b5 1c be 42 3d 8f be 42
       85.50532 80.89779 95.05607 95.27976
000020 40 18 bb 42 00 13 b9 42 dc 4a 52 42 6f 3d cb 42
       93.54736 92.53711 52.573105 101.61999
000030 75 f0 9b 42 d0 e9 84 42 cb f3 a3 42 65 a7 99 42
       77.96964 66.456665 81.97616 76.82694

dense3.weight f4 [1, 16]
000000 f8 d4 c4 3f 96 e7 ac 3f f3 91 cc 3f 54 59 d1 3f
       1.5377493 1.3508174 1.598204 1.6355386
000010 51 44 ce 3f 4b 36 bf 3f f2 af bc 3f 69 62 b8 3f
       1.6114599 1.4938444 1.4741194 1.4405032
000020 83 9c c1 3f a3 d4 bf 3f 78 13 c7 3f 4d 41 bf 3f
       1.5125889 1.4986767 1.5552816 1.4941803
000030 8e 63 bf 3f 84 aa c2 3f df cc b2 3f 25 31 bb 3f
       1.4952257 1.5208287 1.3968772 1.4624373
