model/train_cas_predict2.pth (torch, 18066 bytes, 29 tensors)

lstm1.weight_ih_l0 f4 [16, 16]
0	0xbf055749	-0.5208631
1	0xbde7c109	-0.113161154
2	0xbe8c2d94	-0.27378523
3	0xbd2011f7	-0.039079633
4	0xbe9c40cd	-0.3051819
5	0xbe853892	-0.26019722
6	0x3e3e48ca	0.18582454
7	0xbe9e8118	-0.30957866
8	0xbf041fc5	-0.51610976
9	0x3f5a1dcf	0.85201734
10	0xbe64e907	-0.22354518
11	0x3d8b4ded	0.068019725
12	0x3f0a3e81	0.54001623
13	0x3f9b4b8a	1.2132428
14	0x3f2fc869	0.68665177
15	0xbfe1a5bb	-1.7628702
16	0xbe1ebebe	-0.1550245
17	0xbb805ba4	-0.0039171744
18	0xbedbe290	-0.4294629
19	0x3ebd9c47	0.37033293
20	0xbe418a4c	-0.18900412
21	0xbe3114c0	-0.17293072
22	0xbeb1c74a	-0.34722358
23	0xbf6527bd	-0.8951376
24	0xbf696fec	-0.91186404
25	0xbe68333e	-0.22675797
26	0xbea27f3f	-0.31737706
27	0x3bed6032	0.0072441334
28	0xbd397f3e	-0.045287363
29	0xbec6c8aa	-0.3882497
30	0x3e56d020	0.20977831
31	0xbe51396b	-0.2043206
32	0xbe91c37d	-0.28469458
33	0x3e5e5d0f	0.21715187
34	0x3ea06f99	0.31335142
35	0x3d3f0ba0	0.046641946
36	0xbf8f48d5	-1.1194102
37	0xbf480467	-0.7813172
38	0xbcf5fe57	-0.030028505
39	0x3d346621	0.04404271
40	0xbed1bf0c	-0.4096607
41	0x3d4ac693	0.04950578
42	0xbe83a57c	-0.25712192
43	0xbec36bd4	-0.38168204
44	0xbf2f1880	-0.6839676
45	0xbf539d16	-0.8266157
46	0xbecd9abf	-0.40157124
47	0xbec13c37	-0.37741253
48	0xc01cfa96	-2.4527946
49	0xbf14cc93	-0.58124655
50	0x3eed2308	0.4631579
51	0x3fdc55f9	1.7213737
52	0x3f815127	1.0102891
53	0xbf149054	-0.5803273
54	0xbd9c90ce	-0.07644807
55	0x3e08098b	0.1328489
56	0xbe1221f1	-0.1427076
57	0xbfc27733	-1.5192627
58	0x3df2f620	0.11863351
59	0x3f87ab6f	1.0599192
60	0x3fd10775	1.6330401
61	0x3caae016	0.020858806
62	0x403316a5	2.798257
63	0xbf9cff75	-1.2265459
64	0xbe7115a3	-0.2354341
65	0x3f8f7bee	1.1209695
66	0x3e251731	0.16122128
67	0x3d8897dc	0.0666959
68	0xbe91a0d4	-0.28443015
69	0x3f75d9a2	0.96035206
70	0xbf19d745	-0.600941
71	0x3daafbbb	0.08348795
72	0xbe4b119f	-0.1983094
73	0x3e866611	0.26249745
74	0xbf933800	-1.1501465
75	0x3fcdf5ca	1.6090634
76	0x3ec6a2b2	0.38796002
77	0x3fd89cac	1.6922812
78	0xbf675d24	-0.90376496
79	0x4097c3b5	4.74264
80	0xbcde1e13	-0.02711395
81	0x3f31d408	0.6946416
82	0x3f87a112	1.059603
83	0xbe8181f3	-0.25294456
84	0x3e4eac3c	0.2018289
85	0x3ef525ee	0.478805
86	0x3d839c30	0.06426275
87	0xbea0ad1b	-0.3138207
88	0xbccd040f	-0.02502635
89	0x3de85a0b	0.11345299
90	0x3f143e30	0.5790739
91	0x3d9840ae	0.07434212
92	0x3f1e69f0	0.618804
93	0x3f80517a	1.0024865
94	0x3f167ac6	0.5878109
95	0xbf2e2dd4	-0.6803868
96	0x3f08f338	0.5349612
97	0xbf22a912	-0.6353923
98	0x3f927c3f	1.1444167
99	0x3f955eba	1.1669533
100	0x3e14935a	0.14509335
101	0x3f2bbd7a	0.67085993
102	0x3ea79f47	0.32738706
103	0x3f34e3ee	0.70660293
104	0x400febe5	2.2487729
105	0xbeb476bb	-0.35246834
106	0xbf0d8e23	-0.5529501
107	0x401cebf5	2.4519017
108	0xbf3f98d3	-0.74842566
109	0x3f568a01	0.8380433
110	0x400ddf04	2.2167368
111	0xbf2ed896	-0.68299234
112	0x3f81b403	1.013306
113	0xbfbdb39c	-1.4820437
114	0xbfbeb3e6	-1.4898651
115	0x3e282f6d	0.16424341
116	0xbd8bc00f	-0.06823742
117	0xc05c354e	-3.4407535
118	0xc014502a	-2.3173928
119	0x3fe17b2f	1.7615718
120	0x3e96d1f5	0.2945706
121	0x3e3e4d12	0.18584087
122	0xbf61a1f6	-0.8813776
123	0xbea08596	-0.31351918
124	0x3ec0e286	0.37672824
125	0x3f7a92c1	0.9788018
126	0x3f5d8fa8	0.8654733
127	0xbff2f04e	-1.8979585
128	0x3fa6ecf2	1.304106
129	0x3fbe3263	1.4859127
130	0x4024e7b7	2.5766428
131	0xbe601ca5	-0.21885927
132	0x3fbed565	1.4908873
133	0x3ff236c7	1.8922967
134	0x4041ad1b	3.0261905
135	0xbf0d7dc5	-0.55270034
136	0xbe5c2844	-0.21499735
137	0x3d665246	0.056230806
138	0x3f149adc	0.58048797
139	0x3fb06d61	1.378338
140	0x3dbbfe53	0.09179368
141	0x3e2f51de	0.17121074
142	0xbe762ef0	-0.24041343
143	0x3fb5eda7	1.4213151
144	0xbf1bc8e8	-0.60853434
145	0x3db7c752	0.08973564
146	0x3df9813c	0.121828526
147	0x3d552312	0.0520354
148	0x3f84836b	1.0352606
149	0xbab3c54c	-0.0013715415
150	0x3f069f84	0.5258715
151	0xbf5ef9c9	-0.8709989
152	0xbf2f592f	-0.6849546
153	0xbe5d77b8	-0.216277
154	0x3f27bf1f	0.65526
155	0xbe0e59ba	-0.13901415
156	0xbc6a6d33	-0.014308262
157	0x3f662f0a	0.89915526
158	0x3e7b402e	0.24536201
159	0xbf268aeb	-0.6505572
160	0xbd2a3211	-0.041551653
161	0x3f7eed8e	0.9958123
162	0x3f16c5fe	0.5889586
163	0xbfb5b0c6	-1.4194572
164	0x3ce90101	0.028442862
165	0xbe99763b	-0.29973015
166	0xbf8abdee	-1.0839212
167	0x3f2d2e9f	0.67649263
168	0x3f9ec91b	1.2405123
169	0xbea7efbc	-0.3280009
170	0x3e2ed138	0.17071998
171	0x3f0cdbff	0.5502319
172	0x3e52d02c	0.20587224
173	0x3e6d9b5e	0.23203799
174	0xbe154c37	-0.14579855
175	0x3e5005e1	0.20314743
176	0x3dc942ac	0.0982717
177	0xbf9d61a7	-1.2295426
178	0xbf9d9f0f	-1.2314166
179	0x3fd27a7c	1.6443629
180	0x3f5f2d95	0.8717893
181	0xbf05a2a4	-0.52201295
182	0xbf5b093a	-0.85560954
183	0xbe54d749	-0.2078525
184	0x3f9d6b45	1.2298361
185	0xbf13e206	-0.5776676
186	0xbf1959e4	-0.5990279
187	0xbe3e43d0	-0.18580556
188	0x3c1a370a	0.009412536
189	0x3eaae1c7	0.3337538
190	0xbf548aa3	-0.8302404
191	0xbf43f9c9	-0.76553017
192	0x3f864ef7	1.0492848
193	0x3d6ac648	0.057318002
194	0x3f7c9c8d	0.9867638
195	0xc008c1b6	-2.1368232
196	0xbf2be3d6	-0.67144525
197	0xbf0fc37f	-0.5615768
198	0xbf850244	-1.0391316
199	0x4054065b	3.312888
200	0x3f403d05	0.7509311
201	0xbee6374c	-0.44964063
202	0x3e9cb0ba	0.30603582
203	0xbcfed8f8	-0.031109318
204	0x3f685a71	0.90763
205	0x3ea084c6	0.31351298
206	0xbe561c89	-0.20909323
207	0xbdbabddf	-0.09118246
208	0x3fd845dd	1.689632
209	0xbeb14476	-0.34622544
210	0xbf88c9b9	-1.0686561
211	0x3f501b46	0.81291616
212	0x3e276b86	0.1634961
213	0xbe39fe56	-0.18163428
214	0xbdff840a	-0.12476356
215	0x3ecc563a	0.39909536
216	0x3ea8fbb4	0.33004534
217	0xbeb650f8	-0.3560865
218	0xbe436806	-0.1908265
219	0xbe114802	-0.14187625
220	0x3f07d7f2	0.5306388
221	0xbe3afdeb	-0.18260925
222	0xbe7fcc6a	-0.24980322
223	0xbedfdb93	-0.4372221
224	0x3f82c30d	1.0215775
225	0xbd5fbc6e	-0.05462306
226	0xbf30aa70	-0.69010067
227	0x3eb1e368	0.3474381
228	0xbf3ae0e8	-0.7299943
229	0x3f1f48c5	0.6222041
230	0xbf0450de	-0.51685894
231	0x3e3589df	0.17728375
232	0x3eac3f13	0.33641872
233	0x3eb77e5f	0.358386
234	0xbec4a10b	-0.38404116
235	0x3e604374	0.21900731
236	0xbf654516	-0.8955854
237	0xbe858040	-0.2607441
238	0xbe39855a	-0.18117276
239	0x3f8269cf	1.018854
240	0xbecef391	-0.404202
241	0xbe0f3659	-0.13985576
242	0xbeb7d807	-0.35907003
243	0x3fc9dbab	1.5770162
244	0xbebd8f97	-0.37023613
245	0x3f894b0b	1.0726026
246	0xbee39e0a	-0.44456512
247	0xbe092248	-0.13391984
248	0x3f7e0b6a	0.99236166
249	0xbf285b41	-0.6576424
250	0xbf36ff76	-0.7148355
251	0x3f56e50e	0.8394326
252	0x4031e72b	2.7797344
253	0xbda49301	-0.08035851
254	0x3f31723c	0.6931493
255	0xbf820663	-1.0158199

lstm1.weight_hh_l0 f4 [16, 4]
0	0x4009b2b1	2.1515315
1	0x3f5befa9	0.8591257
2	0x401e7d4c	2.4763975
3	0x3e2ef3cc	0.17085189
4	0xbed87068	-0.4227326
5	0xbfc06118	-1.5029631
6	0xbe457673	-0.19283466
7	0xbe203ebf	-0.15648936
8	0x40214bb2	2.520245
9	0xc000f274	-2.0147982
10	0x3f10b147	0.56520504
11	0x3f2c78fe	0.6737212
12	0x3ee0449a	0.4380234
13	0xbe89130c	-0.26772344
14	0xc074e070	-3.8261986
15	0x3feee056	1.8662212
16	0xbf827ec6	-1.0194938
17	0x3fd406c4	1.6564565
18	0xbfc78188	-1.5586405
19	0x3f94fe94	1.1640191
20	0x3fadbe2e	1.3573663
21	0x3e9c7866	0.30560607
22	0xbf67a11b	-0.904802
23	0xbfc8a1c2	-1.5674365
24	0x402c34d4	2.6907244
25	0x400fe3b2	2.2482724
26	0xbff9d1bb	-1.951713
27	0x3d1498ac	0.03627841
28	0xbe2d8434	-0.16944963
29	0x3e27bf67	0.16381608
30	0x3fa83988	1.3142557
31	0xbe568483	-0.20948987
32	0xbf2cd59e	-0.67513454
33	0xbf57b3eb	-0.8425891
34	0xc013d0dd	-2.309623
35	0xbfe8a047	-1.8173913
36	0xbf97b531	-1.185217
37	0xbf8aae17	-1.0834378
38	0xbfeb7232	-1.8394225
39	0xbfb3b413	-1.4039329
40	0xc0140dbc	-2.3133383
41	0x3f811577	1.0084676
42	0x3f3ec26c	0.74515414
43	0xbe8aa2df	-0.27077386
44	0x3f54035a	0.82817614
45	0x3f1794aa	0.5921122
46	0x3e651af9	0.2237357
47	0xbf30d0af	-0.69068426
48	0x40052e22	2.0809407
49	0x3faae3c3	1.3350757
50	0x3c08ee6d	0.008357626
51	0xc00d9df5	-2.212766
52	0xbed85580	-0.4225273
53	0x40313787	2.7690141
54	0xc012a58d	-2.2913544
55	0x3eb42ffd	0.35192862
56	0x3fc155e7	1.510434
57	0x405b4a45	3.426408
58	0xbf3670fa	-0.7126614
59	0x3f454a7c	0.7706678
60	0x3f1aacfa	0.6042019
61	0xc01fa033	-2.4941528
62	0x3eca6246	0.39528102
63	0x3f0d0127	0.55079883

lstm1.bias_ih_l0 f4 [16]
0	0x3e5b955d	0.21443696
1	0x3df2f203	0.11862566
2	0xbfaac874	-1.3342423
3	0x3da59fe9	0.08087141
4	0x3f12d4e9	0.57356125
5	0x3f07137d	0.5276411
6	0x3f227e9e	0.6347445
7	0xbeae0d3e	-0.33994478
8	0x3f243927	0.6414971
9	0x3f50c5df	0.8155193
10	0x3ee4cc56	0.44687146
11	0xbe7f6810	-0.2494204
12	0x3f73ce98	0.9523711
13	0x3dbd7c3b	0.09252211
14	0x3e981fbb	0.29711708
15	0x3f4da347	0.80327266

lstm1.bias_hh_l0 f4 [16]
0	0xbf3bd0ab	-0.7336528
1	0xbeee0aa8	-0.46492505
2	0xbfde3580	-1.7360077
3	0x3eb53e81	0.3539925
4	0x3f15b88b	0.58484715
5	0x3edf2da9	0.43589523
6	0x3f6d02ea	0.9258257
7	0xbe9cce83	-0.30626306
8	0x3f86e6bf	1.0539168
9	0x3efc5674	0.49284708
10	0xbe221291	-0.15827395
11	0xbe810880	-0.25201797
12	0x3eb1ca5b	0.34724697
13	0x3e83b571	0.25724366
14	0x3ed4b496	0.41544026
15	0x3f0bdced	0.5463398

batch_norm1.weight f4 [4]
0	0x3f01f2f8	0.50761366
1	0x3f9faf1a	1.2475312
2	0x3fa9b871	1.3259412
3	0x3f2c1c2c	0.67230487

batch_norm1.bias f4 [4]
0	0x3b8eb475	0.0043550082
1	0xbd1ecf18	-0.03877172
2	0x3e9f96e2	0.31169802
3	0x3d204c29	0.039135132

batch_norm1.running_mean f4 [4]
0	0x3f72fb6c	0.9491489
1	0x3f350a9c	0.70719314
2	0xbf2cbce3	-0.6747572
3	0xbd1dce13	-0.038526606

batch_norm1.running_var f4 [4]
0	0x3c0903b4	0.008362699
1	0x3ca384d3	0.019960796
2	0x3bf8437d	0.0075764046
3	0x3e1f62db	0.15565054

lstm2.weight_ih_l0 f4 [32, 4]
0	0x3e884c9b	0.26620945
1	0xbe97a639	-0.29619005
2	0x3f7df838	0.99206877
3	0x3e1d5419	0.15364112
4	0x3e4456e0	0.19173765
5	0xbf05f62d	-0.5232876
6	0x3f8cb268	1.0991945
7	0xbee78a19	-0.45222548
8	0xbedacfaf	-0.42736575
9	0xbd8ecc27	-0.06972533
10	0x3f32f3b5	0.6990312
11	0x3f2638cc	0.64930415
12	0xbf3e25fa	-0.742767
13	0xbe8d6d54	-0.27622473
14	0x3f23728c	0.6384666
15	0x3d5cd002	0.05390931
16	0xbf03993c	-0.5140569
17	0xbf0df1e2	-0.5544721
18	0x3fa5ff9f	1.2968634
19	0xbf03ee3b	-0.51535386
20	0xbe96fdbd	-0.29490462
21	0x3d9b957a	0.0759687
22	0x3fc200ff	1.5156554
23	0x3f5f48f7	0.8722071
24	0xbf3a6f58	-0.7282615
25	0xbfa27e8e	-1.2694871
26	0x3e8fe1c7	0.28101942
27	0x3f858c41	1.0433427
28	0xbd1908b2	-0.037361808
29	0xbe081fe7	-0.1329342
30	0xbf935fd0	-1.1513615
31	0x3d5787a0	0.052619576
32	0x3eace88d	0.33771172
33	0xbdf2e45c	-0.11859962
34	0xbe1ef070	-0.15521407
35	0x3dc86ff0	0.097869754
36	0xbea12260	-0.3147154
37	0x3d101a78	0.035181493
38	0xbe0f4048	-0.13989365
39	0x3e91234b	0.2834724
40	0x3bb68e80	0.0055711865
41	0xbe241d47	-0.16026793
42	0xbe3b4725	-0.18288858
43	0xbe8bddac	-0.2731756
44	0x3e781e7e	0.24230382
45	0x3e5d7b66	0.21629104
46	0xbe6414de	-0.22273585
47	0x3e093014	0.13397247
48	0xbe8ebe62	-0.27879626
49	0xbc2bf980	-0.010496497
50	0xbe8a60cc	-0.27026975
51	0xbd7ccd80	-0.061719418
52	0x3e2e59a2	0.1702638
53	0xbeac5267	-0.33656618
54	0x3e62ce1a	0.22148934
55	0x3eafa807	0.34307882
56	0xbe96a250	-0.2942071
57	0x3da70e48	0.08157021
58	0xbdef9232	-0.116978064
59	0xbe2afa3e	-0.16697022
60	0x3dd50740	0.104017735
61	0xbe1fcd49	-0.15605654
62	0xbdf0222e	-0.11725269
63	0xbe53ca8d	-0.20682736
64	0x3e5c893f	0.2153673
65	0xbf462d2d	-0.7741268
66	0x3ef4d08a	0.47815353
67	0xbed54fcd	-0.41662446
68	0xbddb86d2	-0.10719074
69	0xbfd1b9cd	-1.6384827
70	0x3d99a81b	0.07502767
71	0xbe8fecdd	-0.281104
72	0x3da31d7b	0.07964607
73	0x3f812855	1.0090433
74	0xbe69dbe0	-0.22837782
75	0x3f1022ec	0.56303287
76	0x3e33e002	0.17565921
77	0xbf856002	-1.0419924
78	0x3f5bd181	0.8586655
79	0x3dff8c75	0.12477962
80	0xbe07704d	-0.13226433
81	0x3f1e921a	0.61941683
82	0xbf395afd	-0.7240446
83	0x3f132e90	0.57492924
84	0x3df1803b	0.11792036
85	0x3f63e3f8	0.8901973
86	0xbed7d093	-0.42151317
87	0x3fab3f85	1.337876
88	0xbf4b4ec2	-0.7941705
89	0x3f860872	1.0471327
90	0x3e3ee5c4	0.18642336
91	0x3e9c4370	0.305202
92	0x3c3fca64	0.0117059685
93	0xbcf79740	-0.030223489
94	0xbf52d4e0	-0.8235607
95	0x3dc810d7	0.09768837
96	0xbfcbf53f	-1.5934218
97	0xbf10c140	-0.56544876
98	0x3f26fbd4	0.6522801
99	0xbee25daf	-0.442121
100	0xbe67b15c	-0.22626251
101	0xbf0f795f	-0.5604457
102	0x3f5460fb	0.8296048
103	0xbf2fbe05	-0.6864932
104	0xbfb51db9	-1.4149696
105	0xbe46a2b0	-0.19397998
106	0x3ea83883	0.32855615
107	0x3e835ec8	0.2565825
108	0x3e47008b	0.19433801
109	0xbea19052	-0.3155542
110	0x3f81095f	1.0080985
111	0xbe3d092b	-0.18460529
112	0xbf011dc6	-0.50436056
113	0xbf8f81d9	-1.1211501
114	0x3f051da2	0.5199834
115	0xbf136d0d	-0.57588273
116	0xbf0762ea	-0.52885306
117	0xbe3e5153	-0.1858571
118	0x3f930a8e	1.1487596
119	0xbeba3dc7	-0.36375257
120	0x3eae392b	0.3402799
121	0xbe7fe157	-0.24988304
122	0x3f8a2698	1.0793028
123	0xbf0da0e6	-0.55323637
124	0x3db5cfd0	0.08877528
125	0xbe051be1	-0.12998916
126	0xbf923b52	-1.1424353
127	0x3cbef187	0.023308529

lstm2.weight_hh_l0 f4 [32, 8]
0	0xbd4ba5e0	-0.049718738
1	0x3e1455e0	0.14485884
2	0xbe703fa4	-0.23461777
3	0x3e8217fb	0.2540892
4	0x3e0187b4	0.12649423
5	0x3df1728c	0.11789426
6	0x3e849f1d	0.25902644
7	0xbe2fcbbc	-0.17167562
8	0xbc8ad690	-0.016948014
9	0xbc811e10	-0.015761405
10	0xbe1e8f2d	-0.15484305
11	0x3e6ad7f2	0.22933939
12	0xbdb786a0	-0.089612246
13	0xbe8188a6	-0.25299567
14	0xbd97ee3c	-0.074184865
15	0x3ad63600	0.0016342998
16	0x3e025eb8	0.12731445
17	0xbeb13379	-0.34609583
18	0xbe95df90	-0.29272127
19	0x3e34f80a	0.17672744
20	0x3e82d77f	0.25555035
21	0xbc5fb960	-0.013655037
22	0xbe008348	-0.1255008
23	0xbdd6a95a	-0.1048152
24	0xbe309ace	-0.17246553
25	0xbdea6070	-0.11444175
26	0xbe4943fa	-0.19654837
27	0x3e501e12	0.20323971
28	0xbe2031ed	-0.15644045
29	0xbe936a38	-0.28791976
30	0x3dfdd8dc	0.12394878
31	0x3dafcc0c	0.08583841
32	0xbe8d1b6c	-0.27559984
33	0x3d4cdc20	0.050014615
34	0x3c217720	0.009855062
35	0x3d1410f0	0.036148965
36	0xbea9d5e4	-0.33170998
37	0xbe694a07	-0.22782145
38	0x3e664cb6	0.224902
39	0x3cb737d0	0.02236548
40	0xbc934350	-0.017976433
41	0x3e52d692	0.20589665
42	0xbe17d422	-0.14827016
43	0x3ea9f0f9	0.3319166
44	0x3e840591	0.25785497
45	0xbdd9af10	-0.10629094
46	0xbcc50390	-0.02404955
47	0x3dad81bc	0.084720105
48	0x3d9d70b0	0.07687509
49	0xbe9a6a86	-0.30159396
50	0xbd74c1d8	-0.059755176
51	0x3c851970	0.016247481
52	0x3ea717f1	0.32635453
53	0x3e45a452	0.19300964
54	0xbe9b6052	-0.30346924
55	0x3e0fd844	0.14047343
56	0xbcfe57b0	-0.031047672
57	0x3e47c262	0.19507745
58	0xbd259ff0	-0.04043573
59	0xbd877450	-0.06613982
60	0xbd75a818	-0.05997476
61	0x3e831e61	0.25609115
62	0x3e395c7e	0.18101689
63	0xbd9d8b1c	-0.07692549
64	0xbde23cd6	-0.1104676
65	0xbd183cb0	-0.03716725
66	0xbe7551d5	-0.23956998
67	0xbddb7fec	-0.107177585
68	0xbe30d3e7	-0.17268334
69	0x3dfbeef0	0.12301433
70	0x3ea2b69d	0.31779948
71	0xbe0614a2	-0.13093808
72	0x3e3fcbda	0.18730107
73	0xbdffba4a	-0.12486704
74	0xbdace240	-0.08441591
75	0x3e826ddd	0.25474444
76	0x3d5322f8	0.05154702
77	0x3e918981	0.2842522
78	0xbe0c89d9	-0.1372446
79	0x3d6ecae0	0.058298945
80	0xbe53192d	-0.20615073
81	0x3ca82c00	0.020528793
82	0xbd2fa098	-0.042877764
83	0xbdce325c	-0.10068199
84	0xbcc9bac0	-0.024625182
85	0x3e563b16	0.20920977
86	0xbdf0f7e8	-0.11766034
87	0xbe98242c	-0.29715097
88	0x3e82e9bf	0.2556896
89	0x3e8c8ee5	0.2745277
90	0x3ddec994	0.10878292
91	0xbe056db3	-0.13030128
92	0xbc827c80	-0.015928507
93	0xbd9f8418	-0.07788867
94	0xbe92ba36	-0.28657693
95	0xbe412ed6	-0.18865523
96	0x3cac9950	0.021069199
97	0x3e5a098e	0.21292707
98	0xbc24dea0	-0.010062844
99	0x3e952f1b	0.291375
100	0xbeb0f547	-0.34562132
101	0xbd858cc4	-0.065209895
102	0x3e9e7481	0.3094826
103	0x3e35d962	0.17758706
104	0xbeab6b06	-0.3348009
105	0xbd29b6a0	-0.04143393
106	0xbd27c3b8	-0.040958136
107	0xbdca9654	-0.09891954
108	0xbeaaaf29	-0.33336762
109	0xbe2b6b4a	-0.16740146
110	0x3e6f2aa6	0.23356113
111	0x3e96526f	0.29359767
112	0x3e385436	0.18000874
113	0xbe589811	-0.21151759
114	0xbea1ab12	-0.3157583
115	0x3e4ed262	0.20197442
116	0xbc3a1a40	-0.011358798
117	0xbd829708	-0.06376463
118	0x3dcbbe40	0.09948397
119	0xbe2bd8bc	-0.16781896
120	0xbd7635b8	-0.060109824
121	0x3c3e8e00	0.011630535
122	0xbe9ebb78	-0.31002402
123	0xbda29674	-0.07938853
124	0x3e018f4c	0.1265232
125	0xbdad403c	-0.08459517
126	0xbd8bae14	-0.06820312
127	0xbd3be9c0	-0.04587722
128	0xbe6b3e8c	-0.22973078
129	0x3cbbe0a0	0.022934258
130	0x3e0dd140	0.13849354
131	0x3e885ab3	0.26631698
132	0xbe3fe3a0	-0.18739176
133	0xbeafbc99	-0.34323576
134	0xbe993b66	-0.2992813
135	0xbe8b364f	-0.27189872
136	0x3e967e8b	0.2939342
137	0x3e9eab29	0.3098996
138	0x3e1f07be	0.15530297
139	0x3d612a90	0.05497223
140	0xbd285510	-0.041096747
141	0xbd737b48	-0.059443742
142	0xbd5f85d0	-0.054570973
143	0xbd8d705c	-0.069061965
144	0xbc888340	-0.016664147
145	0xbe18e256	-0.1493009
146	0xbd220b40	-0.03956151
147	0xbd7327b8	-0.05936405
148	0x3da0a988	0.078448355
149	0xbe9a2472	-0.3010593
150	0xbe2a0811	-0.1660464
151	0x3e282eaa	0.16424051
152	0xbd3569a0	-0.044290185
153	0xbea14c83	-0.31503686
154	0x3c363da0	0.011123091
155	0xbe74d57b	-0.23909561
156	0xbd65e300	-0.056124687
157	0x3e8d081b	0.27545246
158	0x3e9cb5e7	0.3060753
159	0x3d8543c4	0.06507066
160	0xbeb46cd8	-0.3523929
161	0xbdb2f9e4	-0.08739069
162	0xbe904eee	-0.2818522
163	0x3db179b4	0.08665791
164	0xbe9f58db	-0.3112248
165	0x3dc94a80	0.09828663
166	0x3ea577a1	0.32317832
167	0x3eacc33d	0.33742705
168	0x3e98f2a1	0.2987261
169	0x3e13f7c6	0.14449987
170	0x3da9b35c	0.08286163
171	0x3e3d20da	0.18469563
172	0x3eab492f	0.33454272
173	0xbda96830	-0.08271825
174	0x3e58ca5e	0.21170947
175	0x3d199da0	0.03750384
176	0xbe2fc950	-0.17166638
177	0xbe4aada6	-0.19792804
178	0xbe92a348	-0.286402
179	0xbea97293	-0.33095226
180	0xbe9d52ba	-0.30727178
181	0xbca6b200	-0.020348549
182	0xbe87e746	-0.26543635
183	0xbe62fc0c	-0.22166461
184	0xbe82c927	-0.25544092
185	0x3e2380a2	0.15967038
186	0xbe3d69e7	-0.1849743
187	0x3e4652f6	0.19367585
188	0x3ea0ad93	0.31382427
189	0xbda9ef7c	-0.08297631
190	0x3e6f7baa	0.23387018
191	0xbd7eb268	-0.06218186
192	0xbddf15b8	-0.108928144
193	0x3e1fe50e	0.15614721
194	0x3c071920	0.008245736
195	0x3e85a193	0.26099834
196	0xbe04ec88	-0.12980855
197	0xbd4b5520	-0.04964173
198	0xbe5e0ab3	-0.21683769
199	0xbda631f8	-0.081149995
200	0x3df93f88	0.12170321
201	0x3e20c0ea	0.15698591
202	0x3ddaef4c	0.106901735
203	0xbe945cc4	-0.28977025
204	0xbce82360	-0.02833718
205	0xbd99943c	-0.074989766
206	0xbe73ca76	-0.23807701
207	0x3e98f6cb	0.29875788
208	0x3d8bad48	0.0682016
209	0xbe624e71	-0.22100236
210	0x3e16151e	0.14656493
211	0xbd1bdcd0	-0.03805238
212	0x3cefac70	0.02925703
213	0x3dc81f14	0.09771553
214	0x3ca839e0	0.02053541
215	0x3e43b35a	0.19111386
216	0xbd981178	-0.07425207
217	0xbd825a98	-0.06364936
218	0xbe2c5d73	-0.16832523
219	0xbe0d91aa	-0.13825098
220	0x3d99abb0	0.0750345
221	0x3e41883e	0.18899629
222	0x3d076678	0.033056706
223	0x3e62277a	0.22085372
224	0xbeb145e8	-0.34623647
225	0x3de921a4	0.113833696
226	0x3e60496a	0.21903005
227	0x3df878d4	0.12132421
228	0x3c174ec0	0.009235084
229	0xbe2578a8	-0.16159308
230	0x3e97b49b	0.2962998
231	0xbdd91cd2	-0.106012
232	0x3e3c6bde	0.18400523
233	0xbe02c551	-0.12770583
234	0x3d7f8db0	0.062390983
235	0xbdd9fc06	-0.10643773
236	0xbeb47e86	-0.3525278
237	0xbe66a1d3	-0.22522669
238	0xbe44b0fc	-0.19208139
239	0xbe50100b	-0.2031862
240	0x3de14034	0.10998574
241	0xbdf15390	-0.117835164
242	0xbd845b84	-0.06462768
243	0xbea1d8b3	-0.3161064
244	0xbea3f457	-0.32022354
245	0xbc0b4fe0	-0.00850293
246	0x3e1b3932	0.15158537
247	0x3e39a2b6	0.18128476
248	0xbd8d4ec0	-0.06899786
249	0x3c500f60	0.012698978
250	0x3dea7620	0.11448312
251	0x3bc237c0	0.005927056
252	0xbe9a921c	-0.30189598
253	0xbe594a66	-0.21219787
254	0xbe2617fd	-0.16220088
255	0xbe303e54	-0.17211276

lstm2.bias_ih_l0 f4 [32]
0	0xbcfee77a	-0.031116236
1	0xbebf7175	-0.37391248
2	0x3f3ba711	0.733018
3	0x3f1b192d	0.6058529
4	0xbe336316	-0.17518267
5	0xbdd941cb	-0.10608252
6	0x3f310b4e	0.69157875
7	0xbfa07198	-1.2534666
8	0x3e33ae0a	0.1754686
9	0x3e52f50e	0.20601293
10	0x3e0a3c08	0.13499463
11	0x3eaa35db	0.33244213
12	0xbc891170	-0.016731948
13	0x3e5893ba	0.21150103
14	0x3d56d950	0.05245334
15	0x3e11f4c6	0.1425353
16	0x3f4b8f0d	0.79515153
17	0x3ed80c9a	0.42197114
18	0xbf261f9e	-0.64891994
19	0x3f8f9e7a	1.1220238
20	0xbf951e61	-1.1649896
21	0x3d988eb3	0.07449093
22	0x3f022e3d	0.50851804
23	0x3f24d853	0.64392585
24	0xbf25799a	-0.64638674
25	0xbdd79b69	-0.10527689
26	0xbe652212	-0.22376278
27	0x3f1b7ea7	0.6074013
28	0x3eea6b28	0.4578488
29	0xbe7c3e2b	-0.2463309
30	0x3f70cffc	0.9406736
31	0xbf94b557	-1.161784

lstm2.bias_hh_l0 f4 [32]
0	0x3eb4cd67	0.3531296
1	0xbecd6ec5	-0.40123573
2	0x3f7ccc4e	0.98749244
3	0x3f3d28e5	0.73890525
4	0xbf1b5a36	-0.60684526
5	0xbee033d7	-0.4378955
6	0x3f43e0ac	0.765147
7	0xbf37e010	-0.7182627
8	0x3df4ffbc	0.1196284
9	0xbe2d8e5c	-0.16948837
10	0xbea0cbc4	-0.3140546
11	0x3eafb187	0.3431513
12	0xbe5172e1	-0.20453979
13	0x3e214b6a	0.15751424
14	0xbd25fff0	-0.040527284
15	0xbe90403a	-0.28174
16	0x3f1f9279	0.62332875
17	0x3f427ebe	0.75974643
18	0xbedb4c88	-0.42831826
19	0x3f8f4c50	1.1195164
20	0xbf83b8d5	-1.0290781
21	0x3ee585a8	0.44828534
22	0x3f4daf98	0.8034606
23	0x3d79fbda	0.0610312
24	0xbefca6a1	-0.49345878
25	0x3e34d879	0.17660703
26	0xbe27cb3b	-0.1638612
27	0x3f131fe3	0.5747053
28	0x3f58756d	0.8455418
29	0xbd55518f	-0.052079733
30	0x3f198338	0.5996585
31	0xbf9c4750	-1.2209263

batch_norm2.weight f4 [8]
0	0x3f270647	0.65243953
1	0x3f950a1e	1.1643713
2	0x3f826d06	1.0189521
3	0x3fa44d32	1.2836058
4	0x3fc1e492	1.5147879
5	0x3f9ee3ba	1.2413247
6	0x3fc8cbdb	1.5687212
7	0x3fa30b38	1.2737799

batch_norm2.bias f4 [8]
0	0xbf095b95	-0.5365537
1	0xbfebc103	-1.8418278
2	0xbef517f1	-0.47869828
3	0xbf010184	-0.5039294
4	0xbf156f8c	-0.5837333
5	0xbeda02d1	-0.42580274
6	0x3ebcb468	0.3685639
7	0xbe860fad	-0.26183835

batch_norm2.running_mean f4 [8]
0	0x3e4055bb	0.18782704
1	0x3e3da793	0.18520956
2	0xbe4b8766	-0.19875869
3	0x3ef3a285	0.4758493
4	0xbea53a06	-0.3227083
5	0x3b06f60c	0.0020593433
6	0x3e8a5a1e	0.2702188
7	0x3d237397	0.039905157

batch_norm2.running_var f4 [8]
0	0x3d0020e3	0.031281363
1	0x3d7dd232	0.061968036
2	0x3d2d1b93	0.042262625
3	0x3d455512	0.048176832
4	0x3d6cf088	0.057846576
5	0x3da42ea2	0.08016707
6	0x3dedef0e	0.11617862
7	0x3c161949	0.009161302

dense1.weight f4 [32, 8]
0	0xbea98f7f	-0.3311729
1	0xbfaaaff7	-1.333495
2	0x3d9d5bc6	0.0768352
3	0xbeb06ce8	-0.3445809
4	0x3ed94ab4	0.42439806
5	0x3f2de327	0.6792473
6	0x3f2c71c1	0.67361075
7	0x3bae7680	0.005324185
8	0xbda4e2a8	-0.08051044
9	0x3f9e15d3	1.235041
10	0x3f34c8ac	0.706187
11	0xbc8bb7b8	-0.017055377
12	0xbf0e13e1	-0.5549908
13	0xbf276eb3	-0.6540329
14	0xbf77a61d	-0.96737844
15	0x3f769a83	0.96329516
16	0xbf2d68cc	-0.6773803
17	0xbfb20342	-1.3907244
18	0x3e739950	0.23788953
19	0x3e663755	0.22482045
20	0x3eeac6b2	0.45854717
21	0x3f3b0843	0.7305948
22	0x3fa340b4	1.2754121
23	0xbf85f48d	-1.0465256
24	0xbea6eb86	-0.32601565
25	0xbedef917	-0.43549415
26	0x3f449094	0.7678311
27	0xbee06137	-0.4382417
28	0x3f9d6276	1.2295673
29	0x3ccc70f2	0.0249562
30	0x3d873902	0.0660267
31	0x3f330337	0.6992678
32	0xbec08127	-0.37598535
33	0xbe8346ac	-0.25639856
34	0x3ed1305d	0.4085721
35	0xbf19bc0f	-0.6005258
36	0x3fd3c491	1.6544362
37	0x3e3bc5aa	0.18337122
38	0xbdbf3a96	-0.09337346
39	0x3e8a1491	0.26968816
40	0xbe287ec3	-0.16454606
41	0xbf82666f	-1.018751
42	0x3f0ff545	0.56233627
43	0x3dd3b795	0.1033775
44	0x3f37067a	0.7149426
45	0x3ec083e4	0.37600625
46	0x3f567b92	0.83782303
47	0x3e1efa4e	0.15525171
48	0x3fb88575	1.4415728
49	0x3f901d31	1.1258909
50	0xbf98efcf	-1.1948184
51	0x3ef68d0e	0.4815449
52	0xbf4009c5	-0.7501491
53	0xbf59a6df	-0.8502025
54	0x3b4b87b2	0.0031056223
55	0xbe01cc78	-0.12675655
56	0x3e5c7ef0	0.21532798
57	0x3e9b45e2	0.30326754
58	0xbead4c2e	-0.33847183
59	0xbe9fa315	-0.3117911
60	0xbe981721	-0.29705146
61	0xbf76cecf	-0.96409315
62	0xbfbcfe06	-1.4765022
63	0x3f795a36	0.97403276
64	0x3f930c2a	1.1488087
65	0x3ca75e1c	0.020430617
66	0xbf696374	-0.9116738
67	0x3ebaab99	0.36459044
68	0xbf0b5995	-0.54433566
69	0xbf8ce9d6	-1.1008861
70	0xbf3cb3ee	-0.7371205
71	0x3e9545aa	0.29154712
72	0x3f809d09	1.0047923
73	0x3ede7ac4	0.43453038
74	0xbf70fd42	-0.9413644
75	0xbdcd44f0	-0.100229144
76	0xbf18d5ae	-0.5970105
77	0xbfa7bde3	-1.3104824
78	0xbf23ed55	-0.64034015
79	0x3ea7948b	0.32730517
80	0xbf36da06	-0.7142643
81	0xbefd1bc9	-0.4943526
82	0xbcc9194c	-0.024548195
83	0x3de301bc	0.11084315
84	0x3f3025a7	0.6880745
85	0x3f1c9003	0.61157244
86	0x3f63447c	0.88776374
87	0xbf60d7e6	-0.87829435
88	0xbf0201e2	-0.5078412
89	0x3de7825a	0.113041595
90	0x3ec44636	0.38334817
91	0xbfc4d406	-1.5377204
92	0x3e908042	0.28222853
93	0x3ea49a7a	0.32149106
94	0xbf498ebd	-0.78733426
95	0x3f6dc824	0.92883515
96	0x3e76dfae	0.24108765
97	0xbd6f9f91	-0.058501784
98	0xbef31cc5	-0.47482887
99	0xbeb86b54	-0.36019385
100	0xbd2033d4	-0.039111927
101	0xbfe420d6	-1.7822521
102	0xbf8d1de9	-1.1024753
103	0x3f8840e4	1.0644803
104	0xbf7e0612	-0.9922801
105	0xbf63a790	-0.88927555
106	0x3e94279c	0.2893647
107	0xbf288759	-0.65831524
108	0x4029da0a	2.653933
109	0x3eb244c1	0.3481808
110	0x3e2b27fe	0.16714475
111	0x3ea74e15	0.3267676
112	0xbeb049cd	-0.34431306
113	0xbd433801	-0.04766083
114	0x3f85a29a	1.0440247
115	0xbf7a0a76	-0.9767221
116	0x3ee7b31a	0.4525383
117	0x3d23d3f7	0.039997067
118	0xbed9b909	-0.42523983
119	0x3f60db26	0.87834394
120	0xbe878ad3	-0.26473102
121	0xc009787b	-2.1479785
122	0x3ec4bbe5	0.38424602
123	0xbe953f65	-0.2914993
124	0x3f8027b8	1.0012121
125	0x3ee56119	0.44800642
126	0x3f6b6f53	0.9196674
127	0x3e8f80fd	0.28028098
128	0xbe914f9b	-0.28381047
129	0xbea298eb	-0.31757292
130	0x3f2303fe	0.63677967
131	0xbde0b4ca	-0.10971983
132	0x3f33afd2	0.70190156
133	0x3e96a580	0.2942314
134	0x3e98a4ac	0.29813135
135	0x3f8561e6	1.0420501
136	0xbf7a61bf	-0.978054
137	0xbf832ede	-1.0248678
138	0x3f161af5	0.58634883
139	0x3c931ffb	0.017959585
140	0x3f5550c0	0.8332634
141	0x3f2798d8	0.65467596
142	0x3f331065	0.6994689
143	0x3dee6d1c	0.11641905
144	0xbe9fbf94	-0.3120085
145	0xbf30929c	-0.6897371
146	0x3e09f5bf	0.13472651
147	0xbfa689f8	-1.3010855
148	0x3ff55a93	1.9168266
149	0x3dc75dfc	0.09734723
150	0x3e2add4d	0.16685982
151	0x3f1bee0c	0.60910106
152	0xbe53a1f0	-0.20667243
153	0x3e96baec	0.29439485
154	0x3f663680	0.8992691
155	0xbf34112c	-0.703387
156	0x3afbb741	0.0019204394
157	0x3d170081	0.036865715
158	0xbed4f28d	-0.41591302
159	0x3f4a3949	0.7899366
160	0x3fa7a07f	1.3095855
161	0x3f0040f1	0.5009909
162	0xbfab178f	-1.3366565
163	0x3ed6cb86	0.4195215
164	0xbe8f8940	-0.280344
165	0xbfa24bcd	-1.2679383
166	0xbe9717a0	-0.29510212
167	0xbe237042	-0.15960792
168	0xbf21d0b5	-0.63209087
169	0xbf65e9bc	-0.89809775
170	0x3e416004	0.18884283
171	0x3e399cbb	0.18126194
172	0x3f0201da	0.50784075
173	0x3f91a641	1.1378862
174	0x3f890a6f	1.0706309
175	0xbf83d61a	-1.0299714
176	0xbed41f67	-0.41430208
177	0xbf08182c	-0.53161883
178	0xbe1c6252	-0.15271881
179	0x3dee991b	0.11650296
180	0x3f406fcf	0.75170606
181	0x3e935d41	0.28782085
182	0x3f559dfb	0.83444184
183	0xbf5326aa	-0.8248087
184	0xbed5c598	-0.41752315
185	0xbebd3aeb	-0.36959013
186	0x3ed5bedb	0.41747174
187	0xbf626ed7	-0.8845038
188	0x3fb6f9dd	1.4295002
189	0x3e0ae9af	0.13565706
190	0xbd9311de	-0.07181142
191	0x3f0bd716	0.5462507
192	0xbec62f32	-0.38707882
193	0xbf17af2e	-0.5925168
194	0xbe33822c	-0.17530125
195	0x3ebe3421	0.37149146
196	0x3edcb045	0.43103233
197	0x3e8ba5b6	0.27274865
198	0x3f8559ed	1.0418068
199	0xbdf36343	-0.11884167
200	0xbe6125e3	-0.21987109
201	0xbeab0de8	-0.33409047
202	0x3e207529	0.15669693
203	0x3f0c6c2b	0.5485255
204	0xbeb6e861	-0.35724166
205	0x3ff56abc	1.9173198
206	0x3f1fc17c	0.6240461
207	0xbefc792f	-0.49311206
208	0xbf078db4	-0.52950597
209	0xbf2be198	-0.67141104
210	0x3dad2b56	0.08455531
211	0xbfb38fa8	-1.4028215
212	0x3fe4a3ca	1.7862484
213	0xbe31f169	-0.17377247
214	0xbe9709b1	-0.2949958
215	0x3f8ddf67	1.1083802
216	0xbd3e4eb8	-0.04646179
217	0xbe9e5c19	-0.3092964
218	0xbef9518a	-0.48695022
219	0xbf5f9402	-0.87335217
220	0x3e3831b2	0.17987707
221	0xbf8e6417	-1.1124295
222	0xbf8466fe	-1.0343931
223	0x3fa97d4a	1.324136
224	0xbf07bca4	-0.5302222
225	0xbfcd1dd6	-1.602473
226	0x3dd5bd15	0.10436455
227	0xbf456348	-0.77104616
228	0x3fd0363c	1.6266551
229	0x3f0c71c3	0.54861087
230	0x3efec01f	0.49755952
231	0x3e396a93	0.18107061
232	0xbea9486a	-0.3306306
233	0xbf98c6fb	-1.1935724
234	0x3e9e98cc	0.3097595
235	0xbed29364	-0.41128075
236	0x3fdbeb14	1.7181115
237	0x3f434bd3	0.76287574
238	0x3f47c65d	0.78037053
239	0xbc4b6a0f	-0.012415423
240	0xbec84d36	-0.39121407
241	0xbead83d8	-0.3388965
242	0x3e7b1ddd	0.2452311
243	0x3ec4fce6	0.38474196
244	0x3ecbca17	0.3980262
245	0x3f40365b	0.7508294
246	0x4002cb63	2.0436637
247	0xbf2fef9e	-0.68725
248	0xbe8e1e04	-0.27757275
249	0xbf055763	-0.52086467
250	0x3ea4c696	0.3218276
251	0x3ee2b03f	0.4427509
252	0x3eb76b50	0.3582406
253	0x3f198b36	0.59978044
254	0x3f6a7392	0.91582596
255	0xbf36a64e	-0.7134751

dense1.bias f4 [32]
0	0xbfaba71d	-1.3410374
1	0xbe9b6061	-0.3034697
2	0x3f2d79fc	0.6776426
3	0x3e8aee8e	0.27135128
4	0x3db5a582	0.08869459
5	0x3c7d481a	0.015459085
6	0xbef6d9b7	-0.48212978
7	0xbf224afc	-0.6339567
8	0x3f2e832e	0.68168914
9	0xbf80bd23	-1.005772
10	0xbee84420	-0.45364475
11	0x3e9ab695	0.30217424
12	0xbf98d31d	-1.1939427
13	0xbe723d12	-0.23656109
14	0x3e96e52e	0.29471725
15	0x3e5b456b	0.214132
16	0xbe3aac97	-0.182299
17	0x3eeb75ac	0.45988214
18	0x3f8978fe	1.0740049
19	0x3f3cdbaa	0.7377268
20	0xbfae8696	-1.3634822
21	0xbc146275	-0.009056677
22	0xbd92fee1	-0.071775205
23	0x3f61a2c2	0.88138974
24	0x3f0305fc	0.51181006
25	0xbe58411b	-0.21118586
26	0x3ea6686e	0.3250155
27	0xbf695e17	-0.91159195
28	0x3ef03d42	0.46921736
29	0x3e7f4a25	0.24930628
30	0xbfb545af	-1.4161891
31	0xbf84cea4	-1.0375562

batch_norm3.weight f4 [32]
0	0x3f0d6163	0.55226725
1	0x3fc4bd17	1.5370206
2	0x3fa18fd8	1.2622023
3	0x3fa156a3	1.2604564
4	0x3f6ae0e5	0.9174941
5	0x3f4ad8b2	0.792369
6	0x3fb6ee62	1.4291499
7	0x3f81a92a	1.012975
8	0x3fb32116	1.3994472
9	0x3f6b37a1	0.9188176
10	0x3f080f3b	0.5314824
11	0x3fc9f863	1.5778927
12	0x3f5a8a12	0.8536693
13	0x3f4b9993	0.7953121
14	0x3fc6494f	1.5491122
15	0x3f525cbe	0.82172763
16	0x3f02449f	0.5088596
17	0x3f0f0c9c	0.55878615
18	0x3f857fef	1.0429667
19	0x3f65499f	0.8956546
20	0x3fce9f0e	1.614229
21	0x3fcf75ee	1.6207864
22	0x3e846bdc	0.2586354
23	0x3fb5d3ef	1.4205302
24	0x3d86daab	0.06584676
25	0x3f61fa93	0.8827297
26	0x3f8ace93	1.0844291
27	0x3f3d20f9	0.7387844
28	0x3f6578c3	0.8963739
29	0x3f55600e	0.8334969
30	0x3fb13122	1.3843119
31	0x3f1f88f5	0.62318355

batch_norm3.bias f4 [32]
0	0x3f2a2b04	0.66471887
1	0xbe7f3541	-0.24922659
2	0x3f8cac5b	1.0990099
3	0xbeca0ecc	-0.39464414
4	0xbe183398	-0.14863431
5	0x3f94ac41	1.1615068
6	0x3f70435a	0.9385277
7	0x3f909f11	1.1298543
8	0x3fa31cbf	1.2743148
9	0x3f6d40e7	0.9267716
10	0x3ee53980	0.44770432
11	0x3f4260de	0.7592906
12	0x3dc56859	0.09639043
13	0x3f9cd127	1.2251328
14	0xbf7f0965	-0.9962371
15	0x3f21e799	0.63244015
16	0xbf45b48f	-0.77228636
17	0x3f3b9713	0.73277396
18	0x3f56fd52	0.83980286
19	0xbf4c8af9	-0.79899555
20	0x3f67fd97	0.9062132
21	0x3f99f392	1.2027457
22	0x3d22bed3	0.039732765
23	0xbe39acf3	-0.18132381
24	0xbe2797f4	-0.1636656
25	0xbec85dea	-0.3913415
26	0x3ff0d800	1.8815918
27	0x3f89f38e	1.0777452
28	0x3f9a0b21	1.2034646
29	0x3f3e598e	0.743554
30	0x3ec8b106	0.39197558
31	0x3f4df982	0.80458844

batch_norm3.running_mean f4 [32]
0	0x3f96dcd9	1.1786147
1	0xc0397fb2	-2.898419
2	0x40663f62	3.5976186
3	0x3e8235eb	0.2543176
4	0xbe4fed8e	-0.20305464
5	0x3fb12746	1.384011
6	0xc00ba552	-2.1819654
7	0xbf9f8ae5	-1.2464262
8	0x3f333534	0.70003057
9	0xbfa5a7b7	-1.2941808
10	0x3f3a00ec	0.72657657
11	0x3e13ef43	0.1444674
12	0xbf3fae8d	-0.7487572
13	0x3ef757af	0.48309085
14	0xbd56a551	-0.05240375
15	0x40725269	3.78628
16	0xbec46d1f	-0.38364503
17	0x40052ef2	2.0809903
18	0x3ff5e5df	1.9210776
19	0xbe125b08	-0.14292538
20	0xbffa1136	-1.9536502
21	0x3fe31f15	1.774386
22	0x3f91a1a7	1.1377457
23	0x3f871431	1.0553037
24	0x3fe1c84e	1.7639253
25	0xbdd2b2de	-0.102880225
26	0x3f9944ec	1.1974158
27	0x3c64161d	0.013921288
28	0x40432ba0	3.0495377
29	0x3fdba49d	1.7159611
30	0xbefebabd	-0.49751845
31	0xbe675f27	-0.22594891

batch_norm3.running_var f4 [32]
0	0x4159b006	13.605474
1	0x412a946e	10.661238
2	0x41a231e4	20.27436
3	0x418824a0	17.017883
4	0x4197e49a	18.986622
5	0x4145e3f3	12.368152
6	0x41f89226	31.071362
7	0x41765322	15.395296
8	0x417c7da8	15.780678
9	0x4190f6ac	18.120445
10	0x4120d65f	10.052337
11	0x418995be	17.198116
12	0x418228ef	16.269987
13	0x4247f68f	49.99078
14	0x416ab6ac	14.669598
15	0x41f6fdea	30.873981
16	0x411d9e58	9.851158
17	0x419af095	19.367472
18	0x420d80db	35.375835
19	0x40b5d9c9	5.682835
20	0x41aec3ee	21.845669
21	0x418f783e	17.933712
22	0x40e26a3d	7.0754685
23	0x41ada64a	21.706196
24	0x40baaa30	5.833275
25	0x41326293	11.149066
26	0x421e29a4	39.540665
27	0x41762e08	15.386238
28	0x42151556	37.270836
29	0x42009eed	32.1552
30	0x419e113c	19.758415
31	0x41053adf	8.326873

dense2.weight f4 [16, 32]
0	0x3ee765c9	0.45194843
1	0xbfa97c94	-1.3241143
2	0x3f45ec44	0.7731364
3	0xbbee75c8	-0.007277224
4	0xbd806ff5	-0.06271354
5	0x3f269bbd	0.6508139
6	0xbf362652	-0.7115222
7	0xbf74730a	-0.95488036
8	0xbfa91cd1	-1.3211919
9	0xbf7d5ea1	-0.9897252
10	0x3ec0424d	0.37550583
11	0xbefbd732	-0.49187618
12	0xbf3d2b00	-0.7389374
13	0x3e94222d	0.28932324
14	0xbf5a957b	-0.8538434
15	0x3f020a38	0.5079684
16	0xbe8824c4	-0.2659055
17	0x3f1872bd	0.59550077
18	0x3d050e2f	0.03248423
19	0xbe98cb32	-0.29842526
20	0xbf51b9e8	-0.81924295
21	0x3f89d019	1.0766631
22	0x3dd95a0c	0.10612878
23	0xbe3a61b8	-0.18201339
24	0x3e51ad5a	0.20476285
25	0x3f10cffe	0.5656737
26	0xbea65b44	-0.32491505
27	0xbf9b3152	-1.2124426
28	0x3ee45fc9	0.44604328
29	0x3ecb7b84	0.39742672
30	0x3f321894	0.69568753
31	0x3ec3d238	0.38246322
32	0x3eb0bb55	0.34517923
33	0xbfce5361	-1.6119195
34	0x3f25955c	0.6468103
35	0xbd677268	-0.05650559
36	0x3c4ebd4b	0.012618373
37	0x3ec794bc	0.38980663
38	0xbf157f84	-0.583977
39	0xbfbd6f45	-1.4799582
40	0xbf8b990d	-1.0906082
41	0xbf14ed4a	-0.58174574
42	0x3f02582d	0.50915796
43	0xbf32df6a	-0.6987215
44	0xbf4ff996	-0.8124021
45	0x3cb52550	0.022112519
46	0xbee80348	-0.45315003
47	0x3e066c60	0.1312728
48	0xbdf8c62b	-0.121471725
49	0x3eec4376	0.4614522
50	0xbb767c34	-0.0037610652
51	0xbdf1937a	-0.11795707
52	0xbf282500	-0.6568146
53	0x3f6f497c	0.93471503
54	0x3dc89873	0.097947024
55	0xbe5e9918	-0.21738088
56	0x3d04c56f	0.03241485
57	0x3f4af317	0.79277176
58	0xbea9e9d3	-0.33186206
59	0xbfae520c	-1.3618789
60	0x3e431eb0	0.19054675
61	0x3e328f48	0.1743747
62	0x3f2da00f	0.67822355
63	0x3f0b97fa	0.5452877
64	0xbd8604eb	-0.06543907
65	0xbe626d57	-0.22112022
66	0xbe1935cc	-0.14961928
67	0xbf1b89cd	-0.6075714
68	0xbfa022c0	-1.2510605
69	0xbbba62db	-0.005688054
70	0xbe9103ff	-0.2832336
71	0xbe9d51da	-0.3072651
72	0xbec323ac	-0.38113153
73	0xbe0621ed	-0.13098879
74	0xbb11e996	-0.0022264472
75	0xbfc05672	-1.5026381
76	0xbe1fe82e	-0.15615913
77	0xbf54ff10	-0.83201694
78	0xbfaa4f32	-1.3305418
79	0xbea18891	-0.31549504
80	0xbef8c5ba	-0.48588353
81	0xbc0f6ee0	-0.008754462
82	0xbfce8a6d	-1.6135994
83	0xbf328a7f	-0.6974258
84	0xbea57331	-0.32314447
85	0xbe655d91	-0.22398974
86	0xbc07c2f9	-0.008286231
87	0xc0092a87	-2.1432207
88	0xbbe9138b	-0.0071129254
89	0x3e5b3a98	0.2140907
90	0xbfdd2374	-1.7276444
91	0xbe9af6e3	-0.30266485
92	0xbf38c8ca	-0.7218138
93	0xbec8d238	-0.39222884
94	0x3e0a923b	0.13532345
95	0x3e3bf748	0.18356049
96	0x3ee4d3b6	0.44692773
97	0xbe7e2c79	-0.24821652
98	0x3fb27333	1.3941406
99	0x3c342d0a	0.010997066
100	0x3eb35697	0.35027
101	0x3f048a34	0.5177338
102	0xbf69865a	-0.9122063
103	0xbed149af	-0.4087653
104	0xbf4b79f1	-0.7948294
105	0xbf77b61b	-0.96762246
106	0x3f80381e	1.0017126
107	0xbee71753	-0.45134982
108	0xbf501770	-0.8128576
109	0x3e9a2823	0.30108747
110	0xbf26c53f	-0.65144724
111	0x3ee17bd4	0.44039786
112	0xbdc12a6f	-0.09431922
113	0x3ea0be4b	0.31395182
114	0x3d7b8103	0.061402332
115	0xbe3f6594	-0.18691093
116	0xbf1ac2ff	-0.6045379
117	0x3fc4789d	1.5349308
118	0x3f38cf54	0.7219136
119	0xbd77b3c8	-0.060474187
120	0x3ea92b41	0.33040813
121	0x3f2ee8c8	0.68323946
122	0xbf07c226	-0.5303062
123	0xbf7c53f1	-0.98565584
124	0x3eea723c	0.4579028
125	0x3f3a68b2	0.72816
126	0x3fb96a84	1.4485631
127	0x3f56e1a6	0.8393806
128	0xbdcf971d	-0.101362444
129	0x3da772f5	0.08176223
130	0xbf222aaf	-0.6334638
131	0xbf89fac0	-1.0779648
132	0xbe85df38	-0.26146865
133	0xbf2f4a40	-0.6847267
134	0x3fc753fd	1.5572506
135	0x3e7dc878	0.24783504
136	0x3f7fc438	0.9990878
137	0x3f22401c	0.63379073
138	0xbe509e39	-0.20372857
139	0xbf063576	-0.52425325
140	0x3ec82536	0.3909089
141	0xbf85437b	-1.0411218
142	0xbeb69e51	-0.3566766
143	0xbf2eb7ca	-0.6824919
144	0xbec18096	-0.37793416
145	0xbf1b9e60	-0.60788536
146	0xbed9a9dd	-0.42512408
147	0xbf24d9a8	-0.6439462
148	0x3fa422d3	1.2823128
149	0xbf18b84a	-0.596562
150	0xbdb82afc	-0.089925736
151	0xbe5cc2e0	-0.21558714
152	0xbd03e59c	-0.032201394
153	0xbdbb59f6	-0.09148018
154	0xbf896a2c	-1.0735526
155	0x3d794908	0.060860664
156	0xbf55c756	-0.8350729
157	0xbf363fad	-0.7119091
158	0xbecedda5	-0.40403476
159	0xbf2da6cd	-0.6783264
160	0xbf0f9e37	-0.5610079
161	0xbc4c9f5e	-0.012489168
162	0xbf79fa1b	-0.97647256
163	0xbd6ad305	-0.05733015
164	0x3de2c3a3	0.11072471
165	0xbf627ca0	-0.8847141
166	0x3f857a0e	1.0427873
167	0x3ec66455	0.38748422
168	0x3f8b04bf	1.0860823
169	0x3f4173cb	0.7556731
170	0xbf01ebe9	-0.50750595
171	0xbe9fd2a0	-0.31215382
172	0x3ecd14fa	0.40055066
173	0xbefb7e7e	-0.49119943
174	0xbf26cb1f	-0.6515369
175	0xbf5f23d7	-0.8716406
176	0xbed0a516	-0.4075095
177	0xbebd910a	-0.3702472
178	0xbdb058b9	-0.086106725
179	0xbf3070f6	-0.68922365
180	0x3fb9a0c0	1.4502182
181	0xbf9efff2	-1.2421858
182	0xbed10eab	-0.40831503
183	0xbd7a9269	-0.061174784
184	0xbd2872e7	-0.041125204
185	0xbd5e1191	-0.05421597
186	0xbf627cee	-0.8847188
187	0x3e255bfd	0.16148372
188	0xbf33d41b	-0.7024552
189	0xbeb73a8a	-0.3578685
190	0xbf94de0d	-1.1630265
191	0xbeea6f5d	-0.45788088
192	0x3f30e90a	0.6910559
193	0xbf701006	-0.9377445
194	0x3f814382	1.0098727
195	0x3d607e5f	0.054808017
196	0x3e31d702	0.17367175
197	0x3f1358fb	0.5755765
198	0xbf14ca8f	-0.5812158
199	0xbf1102a8	-0.5664468
200	0xbfa71a4e	-1.3054903
201	0xbf552a7a	-0.8326794
202	0x3f09d812	0.5384532
203	0xbf4e1d0a	-0.8051306
204	0xbf1e8129	-0.6191583
205	0x3e6bbbcc	0.23020858
206	0xbf1dcb05	-0.6163791
207	0x3f13fc04	0.5780642
208	0xbd193811	-0.037406985
209	0x3f271ea4	0.6528113
210	0x3e92c4a0	0.28665638
211	0xbeab90c5	-0.33508888
212	0xbf83d706	-1.0299995
213	0x3fc0eab6	1.5071628
214	0x3e5874e6	0.21138343
215	0x3d2b12eb	0.04176609
216	0x3d1ca13f	0.038239714
217	0x3f27e791	0.6558772
218	0xbe6ae00d	-0.22937031
219	0xbf63b2e0	-0.88944817
220	0x3e75588e	0.23959562
221	0x3ed59605	0.41716018
222	0x3f820189	1.0156718
223	0x3f17104a	0.5900923
224	0xbc6204a0	-0.013795048
225	0x3cda10bd	0.02661931
226	0xbe839d91	-0.2570615
227	0xbf516bdf	-0.81805223
228	0xbe92f880	-0.28705215
229	0xbf37774d	-0.71666414
230	0x3fd3a9bf	1.6536177
231	0x3e19e5d9	0.15029086
232	0x3f639a28	0.889071
233	0x3f190c69	0.5978456
234	0xbebb1c5c	-0.36545074
235	0xbedf5d18	-0.43625712
236	0x3e97769a	0.29582673
237	0xbfaee158	-1.366252
238	0xbe817284	-0.2528268
239	0xbf1c24ae	-0.6099347
240	0xbdbb35db	-0.091411315
241	0xbee2bb6f	-0.44283625
242	0xbf0dedab	-0.5544078
243	0xbeba4e82	-0.36388022
244	0x3f851425	1.0396773
245	0xbf097300	-0.536911
246	0xbe2f8aa6	-0.17142734
247	0xbf14d055	-0.5813039
248	0x3cbf13c1	0.02332485
249	0x3e80943d	0.25113097
250	0xbfcde8d4	-1.6086679
251	0xbda5a767	-0.0808857
252	0xbf53084d	-0.8243454
253	0xbf365137	-0.71217674
254	0xbe1eb99a	-0.15500489
255	0xbec33b5e	-0.3813123

dense2.bias f4 [16]
0	0x3f150339	0.5820804
1	0xbf3c4053	-0.7353565
2	0x3f20b9da	0.62783587
3	0xbf15f108	-0.5857091
4	0x3f3a71c1	0.72829825
5	0x3e90f63a	0.28312856
6	0x3e92b8c7	0.286566
7	0x3e67813b	0.22607891
8	0xbe625512	-0.22102764
9	0x3f01813e	0.5058783
10	0x3d907686	0.070538566
11	0xbf5b6b30	-0.8571043
12	0x3e443337	0.19160162
13	0xbf64bd63	-0.8935148
14	0xbf35298b	-0.70766515
15	0x3f22f8bf	0.63660806

batch_norm4.weight f4 [16]
0	0x3fea4c9d	1.830463
1	0x3fec5d0d	1.8465897
2	0x3fd30dfa	1.648864
3	0x3ffb691d	1.9641453
4	0x3ffb84e7	1.9649934
5	0x400d1808	2.2045918
6	0x3fdff1f2	1.7495711
7	0x3ff87fcb	1.9413999
8	0x400d7fa0	2.2109146
9	0x400aadc1	2.166855
10	0x3fb1121a	1.3833649
11	0x3ffe9560	1.9889336
12	0x3fda2aef	1.7044352
13	0x3fce1b3d	1.6102062
14	0x3ff2302b	1.892095
15	0x3fdeb3de	1.7398641

batch_norm4.bias f4 [16]
0	0x400346f8	2.0512066
1	0x40091e92	2.1424909
2	0x401b3063	2.4248283
3	0x3fbd7613	1.4801658
4	0x401364a2	2.3030171
5	0x3fb48b4c	1.410501
6	0x3fd9afdf	1.7006797
7	0x401d5a54	2.4586382
8	0x3fc23873	1.5173477
9	0x400168ac	2.0220137
10	0x4022d4ea	2.5442452
11	0x3f93dfe4	1.1552701
12	0x4021b36f	2.5265768
13	0x40052c9d	2.080848
14	0x3fbfb60d	1.4977432
15	0x3ff0a4dd	1.8800312

batch_norm4.running_mean f4 [16]
0	0xbfea370c	-1.8298049
1	0xc09cf220	-4.9045563
2	0xc14de20b	-12.867686
3	0x3ffe5d73	1.9872268
4	0xc0a1b149	-5.0528913
5	0xc0ae9183	-5.4552627
6	0x3f432599	0.76229244
7	0xc0ce51e5	-6.447497
8	0xc0a7506e	-5.228568
9	0xc0c60c5b	-6.189008
10	0xc155b573	-13.356799
11	0xc10a339b	-8.637599
12	0xc126ea6b	-10.432231
13	0xc1080465	-8.501073
14	0xbc1e4588	-0.009660132
15	0x3d8c3e79	0.06847853

batch_norm4.running_var f4 [16]
0	0x42f55eff	122.68554
1	0x42d124c0	104.57178
2	0x42b643ba	91.13228
3	0x42ecc80d	118.390724
4	0x431a6462	154.39212
5	0x43118aab	145.54167
6	0x43008e36	128.55551
7	0x43154e8f	149.30687
8	0x431fc5b8	159.77234
9	0x431a3231	154.19606
10	0x42b66c46	91.21147
11	0x42ca2549	101.07282
12	0x42caab46	101.33452
13	0x42b11579	88.54194
14	0x43052eec	133.18329
15	0x430f4bd3	143.29619

dense3.weight f4 [1, 16]
0	0x3fadaf56	1.3569133
1	0x3fabbb98	1.3416624
2	0x3fe0727f	1.7534941
3	0x3f9f74b6	1.2457492
4	0x3fcc8e2a	1.5980885
5	0x3fb654c9	1.4244624
6	0x3f9f9329	1.2466785
7	0x3fcd09ed	1.6018654
8	0x3fb5e484	1.4210362
9	0x3fd5fd74	1.6717973
10	0x3fe8c94f	1.8186435
11	0x3fa101b5	1.2578646
12	0x3fd86887	1.6906899
13	0x3fc1e4eb	1.5147985
14	0x3f9d8af5	1.2308031
15	0x3fa7ab0b	1.3099073
