train_cas_predict3.pth (torch, 18066 bytes, 29 tensors)

lstm1.weight_ih_l0 f4 [16, 16]
0	0x3ec71470	0.3888278
1	0xbe7edd6a	-0.2488915
2	0xbe9a7fd4	-0.3017565
3	0x3efefc5a	0.49801904
4	0xbf05d1a2	-0.52273
5	0x3eeab18c	0.45838583
6	0x3f7ecb1e	0.9952868
7	0xbfa27d77	-1.2694539
8	0xbf851766	-1.0397766
9	0x3ee89bd3	0.45431384
10	0xbf2f7836	-0.685428
11	0x3ee15f50	0.4401803
12	0x3f9b6d59	1.2142745
13	0x404d1826	3.204599
14	0x3ee8a326	0.45436972
15	0xc04eb586	-3.2298293
16	0xbf0f0d0a	-0.5587927
17	0xbf317057	-0.6931204
18	0xbf194378	-0.59868574
19	0xbc3c8d88	-0.011508353
20	0xbfa54392	-1.2911246
21	0xbf2325d3	-0.6372959
22	0xbf114bfd	-0.56756574
23	0x3e84e1b1	0.2595344
24	0xbff7e1e6	-1.9365814
25	0xbf85576e	-1.0417306
26	0xbfa68097	-1.3007993
27	0xbca61ca4	-0.020277329
28	0xbe71d64f	-0.23616908
29	0xbf3ff43a	-0.74982035
30	0xbe6f0f65	-0.23345716
31	0xbf39e042	-0.72607815
32	0xbe829d63	-0.25510702
33	0xbe878be4	-0.26473916
34	0xbea4be38	-0.32176375
35	0xbe3883f2	-0.18019083
36	0xbf8bc985	-1.0920874
37	0xbee4206d	-0.4455599
38	0xbd7ca751	-0.061683003
39	0xbece7f5d	-0.40331545
40	0xbe5e2621	-0.21694233
41	0xbea43025	-0.3206798
42	0xbee8e810	-0.4548955
43	0xbf1d0cf1	-0.6134787
44	0xbe9a7cf4	-0.30173457
45	0xbe9aea86	-0.30257052
46	0xbebcaa75	-0.36848798
47	0xbe80f6dc	-0.2518834
48	0xbf7095e5	-0.9397872
49	0xbf0c8c85	-0.54901916
50	0x3dc23a7a	0.0948381
51	0x3b07b752	0.0020708633
52	0xbf000781	-0.5001145
53	0x3e0bed6e	0.13664791
54	0x3f00cceb	0.5031268
55	0x3d011dda	0.03152261
56	0xbe44c0e0	-0.19214201
57	0x3f96c808	1.1779795
58	0xbf13429c	-0.5752351
59	0xc00cba4f	-2.1988714
60	0x3e8ae3f0	0.27127028
61	0xbe488b32	-0.19584349
62	0x3fa7653f	1.3077773
63	0xbf77e36e	-0.96831405
64	0x3f7bd938	0.98378325
65	0xbf9c121c	-1.2193027
66	0x3ef6d8f7	0.48212406
67	0x3f874362	1.0567439
68	0x3f92cdba	1.1469033
69	0xbf2ca360	-0.6743679
70	0xbed79385	-0.42104736
71	0x3fbbfb4f	1.4686068
72	0xbe8f6366	-0.28005522
73	0x409c4741	4.883698
74	0xbfe3a218	-1.7783842
75	0x408403b6	4.125453
76	0x3e73c824	0.23806816
77	0x3f4185d0	0.75594807
78	0xbf8b46bf	-1.0880965
79	0x3fb9842a	1.4493458
80	0xbf2a0aaf	-0.6642255
81	0x3fa2f0d0	1.272974
82	0x406e282f	3.7212026
83	0xbe933442	-0.28750807
84	0x3f0a3441	0.53985983
85	0x3d6c3200	0.05766487
86	0xbddf3bcb	-0.109000765
87	0x3fd6c867	1.6779908
88	0x3ed38fd0	0.41320658
89	0x3e047aca	0.12937465
90	0x3dc30d34	0.09524003
91	0x3f56a92e	0.838519
92	0x3fac399c	1.3455081
93	0xbe17a93c	-0.14810652
94	0xbe63f981	-0.22263147
95	0x3f0bbfa1	0.5458928
96	0x3e645466	0.2229782
97	0x3f35e8be	0.7105826
98	0x3f81c2e4	1.0137601
99	0x3ebac537	0.36478588
100	0x3f67514c	0.90358424
101	0x3f0b4db3	0.54415435
102	0x3f16c8c0	0.5890007
103	0x3ece26dc	0.40264022
104	0xbe18e4b4	-0.14930993
105	0x3f0f0376	0.55864656
106	0x40079dc0	2.1190033
107	0xbd37ba8a	-0.044855632
108	0x3f812a04	1.0090947
109	0x3f7d6efd	0.9899748
110	0x3eaf44cf	0.34232184
111	0xbeebb891	-0.4603925
112	0x3f0d5c34	0.55218816
113	0x3f43c6a2	0.76474965
114	0xbdb548f7	-0.088518076
115	0xbd84946a	-0.0647362
116	0xbfb373b3	-1.4019684
117	0x407031c5	3.7530377
118	0x4046c4df	3.105766
119	0xbf2b607e	-0.6694411
120	0x40088428	2.1330662
121	0xbd82a570	-0.06379211
122	0x3ec1e1a9	0.37867478
123	0x3da016f5	0.07816879
124	0xbe099b78	-0.13438213
125	0x3e1773be	0.14790246
126	0x3ed70377	0.4199483
127	0x3eb6b530	0.3568511
128	0x3e0a0f3f	0.13482378
129	0xbf8a411f	-1.0801123
130	0xbe3c65ff	-0.18398283
131	0x3e8d4de7	0.27598497
132	0x3e65bdc9	0.22435679
133	0xbda05e78	-0.078305185
134	0xbe4cae01	-0.19988252
135	0xbf00ff18	-0.5038924
136	0x3f1605b3	0.58602446
137	0x3cf5c1cc	0.029999636
138	0xbf7ac073	-0.97949904
139	0xbf2b0d62	-0.66817296
140	0x3f49bb3d	0.7880133
141	0xbf65ae06	-0.89718664
142	0x3e0326d1	0.12807776
143	0xbfa57174	-1.2925248
144	0xbeaa6cc6	-0.33286113
145	0xbe1f27ac	-0.15542477
146	0xbe70b9f7	-0.2350844
147	0xbcac2bb7	-0.021016939
148	0xbee3a261	-0.44459823
149	0x3bed15e2	0.0072352747
150	0xbf4d1b49	-0.8011976
151	0x3f8c18f2	1.0945113
152	0xbe8ebbc4	-0.2787763
153	0xbbaff3c2	-0.0053696344
154	0xbed59db7	-0.4172189
155	0x3dcb6ef0	0.09933269
156	0xbed20ada	-0.41023904
157	0xbf3601b2	-0.71096337
158	0xbc958589	-0.018252151
159	0x3efed863	0.49774465
160	0x3f746ebb	0.9548146
161	0xbfb4ea2c	-1.4133964
162	0xbf71814c	-0.94337916
163	0xbc9463da	-0.01811402
164	0x3f92a353	1.1456093
165	0xbee4fe79	-0.44725397
166	0xbf836a62	-1.026684
167	0xbfabea07	-1.3430794
168	0x3e0721d5	0.131965
169	0x3f88b7a8	1.0681047
170	0xbf106be7	-0.56414646
171	0xbfb4b1d9	-1.4116775
172	0x3f128dfb	0.57247895
173	0xbfe4f6f7	-1.7887868
174	0xbed6a559	-0.41923025
175	0xbe98c212	-0.29835564
176	0x3f16bce9	0.58882004
177	0x3fbe5a20	1.4871254
178	0x3f99ab6c	1.2005439
179	0xbf5a88fa	-0.8536526
180	0x3de6a53e	0.11261986
181	0x3f7a6133	0.97804564
182	0x3f5c870f	0.86143583
183	0xbfd3b740	-1.6540298
184	0x3f3afd31	0.7304259
185	0x3f8a9b24	1.0828595
186	0xbe70ff91	-0.23534991
187	0x3e5f5971	0.21811463
188	0x3f62dccf	0.8861818
189	0xbf769209	-0.9631658
190	0x3f9babaa	1.2161763
191	0x3f0b50a0	0.544199
192	0x3ea35d13	0.31906947
193	0xbec4bd34	-0.384256
194	0xbfe73a02	-1.8064578
195	0x3ffc6404	1.9718022
196	0xbf1e15c2	-0.6175195
197	0xbed44e16	-0.41465825
198	0xbf86175a	-1.0475876
199	0x3f21d923	0.6322195
200	0x3f294a68	0.6612916
201	0xbebbf0a8	-0.36707044
202	0xbf162171	-0.5864478
203	0x3ee88d90	0.45420504
204	0xbe132126	-0.14368114
205	0x3eae4c1d	0.34042445
206	0x3d9c7a40	0.07640505
207	0xbeb826f5	-0.35967222
208	0x3fff4b0a	1.9944775
209	0xbf21965e	-0.6312007
210	0x3f39b35e	0.7253932
211	0xbf44c3b6	-0.7686113
212	0x3fa2d717	1.272189
213	0xbe1402ef	-0.14454244
214	0x3fc18e7c	1.5121608
215	0xbf6a3fe2	-0.9150373
216	0xbf7342f3	-0.9502403
217	0xbdd65d26	-0.104669854
218	0xbe0c7e8a	-0.13720146
219	0x3fb85477	1.4400777
220	0xbf0d3894	-0.55164456
221	0xbf2da24a	-0.6782576
222	0xbf3b0fd9	-0.73071057
223	0x402ca7b6	2.6977363
224	0x3f9f3219	1.2437164
225	0xbe5355b8	-0.20638168
226	0xbe884c5d	-0.2662076
227	0x3dd1fcc3	0.102532886
228	0xbec7b87e	-0.39007944
229	0x3e145a8b	0.14487664
230	0xbe70137f	-0.23444937
231	0x3f2325dc	0.63729644
232	0xbd609e76	-0.05483862
233	0xbde1f0af	-0.11032235
234	0xbe9144b4	-0.2837273
235	0x3e5139c5	0.20432194
236	0xbe0aa10a	-0.13537994
237	0xb9838160	-0.0002508266
238	0xbdebe30a	-0.11517914
239	0x3ef4e880	0.47833633
240	0x3f90beba	1.1308205
241	0x3e9eef4f	0.31041953
242	0x3fa9e41b	1.3272737
243	0xbfbc3618	-1.4704008
244	0x3f8fc33c	1.1231456
245	0x3ef332b3	0.47499618
246	0x3fcad3b4	1.5845857
247	0xbfb94f03	-1.4477237
248	0x3d4a748f	0.049427565
249	0x3edc428f	0.4301953
250	0x3ff122f9	1.8838798
251	0xbfafd6d7	-1.3737439
252	0x4005f0b8	2.0928173
253	0xbf003b38	-0.5009036
254	0x3fb616a8	1.4225664
255	0xbf94ae2b	-1.1615652

lstm1.weight_hh_l0 f4 [16, 4]
0	0xc04dc729	-3.2152808
1	0x3e45958e	0.19295332
2	0xc0187c5d	-2.3825905
3	0xc00dcf99	-2.2157958
4	0xc0027d54	-2.0388994
5	0x3e605584	0.21907622
6	0x4001309b	2.0185916
7	0x3fda0190	1.7031727
8	0x400d2f8d	2.2060273
9	0x4080ea76	4.0286207
10	0x3fed7810	1.8552265
11	0xbd70483c	-0.058662638
12	0xbe9c757b	-0.3055838
13	0xbf9a96dc	-1.2077289
14	0x4082caab	4.0872397
15	0xbf480046	-0.7812542
16	0xbe9035ec	-0.2816614
17	0x3fc05feb	1.5029272
18	0x3f26e90a	0.6519934
19	0xbffd7861	-1.9802362
20	0xbfa1f5d4	-1.2653146
21	0x401a23b6	2.4084296
22	0xbef213b9	-0.47280672
23	0x3fd68b35	1.6761233
24	0x3f56d86e	0.83923995
25	0x3fad72b6	1.3550632
26	0x3eb5c487	0.355015
27	0x3fc732fe	1.5562437
28	0xbfb213a2	-1.3912241
29	0x3e71d03e	0.23614594
30	0xbd8c0a8a	-0.06837948
31	0xbf153d44	-0.5829661
32	0x40201601	2.501343
33	0xbfcf5868	-1.6198854
34	0x4033988b	2.8061855
35	0x3ec18f5d	0.3780469
36	0xbf931b4b	-1.1492704
37	0x3eb91685	0.36149994
38	0x3fad530b	1.3540968
39	0x40413e69	3.0194342
40	0xbfa1bbdf	-1.2635459
41	0xbfcebb74	-1.6150956
42	0x3f64560f	0.89193815
43	0x3fa2008a	1.2656415
44	0x404a3c06	3.1599135
45	0x3fe8c296	1.8184383
46	0x3c656acc	0.014002513
47	0x3eae2d71	0.34019044
48	0x3e9277a0	0.28606892
49	0xc04fffac	-3.24998
50	0xbf260372	-0.6484901
51	0x3fd51e3e	1.6649854
52	0x3f34b840	0.70593643
53	0x40805752	4.010659
54	0xc04dc762	-3.2152944
55	0xbf6eaa7c	-0.9322889
56	0xc07230a0	-3.7842178
57	0x3f0eecf3	0.55830306
58	0xc01d1bbf	-2.4548185
59	0xbf058500	-0.52156067
60	0x3f71c225	0.94436866
61	0x3edc99f3	0.43086204
62	0x3fa95a87	1.3230752
63	0xbfdbe4a3	-1.7179149

lstm1.bias_ih_l0 f4 [16]
0	0xbe8a7903	-0.2704545
1	0xbf8eae12	-1.1146872
2	0xbf04e5e4	-0.51913285
3	0xbf098584	-0.53719354
4	0x3f609110	0.8772135
5	0x3f43da3b	0.7650487
6	0x3f2cb6f2	0.6746665
7	0x3f56fa5e	0.8397578
8	0xbf0b4eb2	-0.54416955
9	0x3e76fe44	0.24120432
10	0xbe90a6d4	-0.2825228
11	0x3f56c325	0.83891517
12	0xbe892b16	-0.26790684
13	0x3d980a93	0.07423892
14	0x3e4b226b	0.19837348
15	0x3ed4b37a	0.4154318

lstm1.bias_hh_l0 f4 [16]
0	0x3e83ff7b	0.25780854
1	0xbf8816c3	-1.0631946
2	0xbf7c3fe1	-0.9853497
3	0x3becdbb2	0.007228338
4	0x3edc0327	0.42971155
5	0x3f206887	0.62659496
6	0x3fa24bd1	1.2679387
7	0x3e43c429	0.19117798
8	0xbf8569e7	-1.0422944
9	0x3d80335a	0.062597945
10	0xbec1c33e	-0.3784427
11	0x3f716381	0.94292456
12	0xbe8c5f85	-0.27416626
13	0x3ed19353	0.40932712
14	0x3f4c8fc1	0.7990685
15	0x3f590982	0.8478013

batch_norm1.weight f4 [4]
0	0x3f5305c0	0.8243065
1	0x3f956f90	1.1674671
2	0x3fc9d89b	1.5769228
3	0x3f5981ad	0.84963495

batch_norm1.bias f4 [4]
0	0xbe2938f6	-0.16525635
1	0xbe88d682	-0.26726156
2	0x3e68e65f	0.2274413
3	0xbdea74b4	-0.114480406

batch_norm1.running_mean f4 [4]
0	0xbe9347b0	-0.2876563
1	0x3eab9d5e	0.335185
2	0xbf2a7155	-0.6657918
3	0x3e6d009c	0.23144764

batch_norm1.running_var f4 [4]
0	0x3d696f36	0.056990825
1	0x3c2fc09e	0.010727076
2	0x3c454a0e	0.012041582
3	0x3d151260	0.036394477

lstm2.weight_ih_l0 f4 [32, 4]
0	0xbefd1007	-0.4942629
1	0x3dc29070	0.095002055
2	0xbed416e2	-0.41423708
3	0xbfeaaba7	-1.8333634
4	0xbeaff343	-0.3436528
5	0x3fd495e2	1.6608241
6	0x3e442a5b	0.19156782
7	0x3f3da1d7	0.74075073
8	0x3eba6363	0.3640395
9	0x3e304950	0.17215466
10	0x3faa3246	1.3296592
11	0xbecf59f2	-0.4049831
12	0xbef4eb07	-0.47835562
13	0x3f27f571	0.6560889
14	0xbf3c3db3	-0.73531646
15	0x3f03ed79	0.5153423
16	0x3f67de04	0.90573144
17	0xbfbc85ae	-1.4728296
18	0x3e3bf21c	0.18354076
19	0xbf8937d4	-1.0720162
20	0x3f3af436	0.73028886
21	0xbfe388a7	-1.7776078
22	0xbe56b7c2	-0.20968536
23	0xbf0ace7a	-0.5422131
24	0x3f036a34	0.5133393
25	0xbf062f5e	-0.52416027
26	0xbf0d2a1a	-0.55142367
27	0x3faccc22	1.3499796
28	0xbe8a6fa0	-0.27038288
29	0xbdd3268e	-0.10310088
30	0x3f68bdd3	0.9091465
31	0xbe1b1451	-0.15144469
32	0x3e49055a	0.19630948
33	0xbe96b794	-0.29436934
34	0x3dde5798	0.10856551
35	0xbe8d2bda	-0.2757252
36	0xbea566e4	-0.32305062
37	0x3e80b39b	0.25137028
38	0xbe1495d9	-0.14510287
39	0xbe6acd1a	-0.22929803
40	0x3c9e6cd0	0.019338995
41	0xbe3a636f	-0.18201993
42	0xbe47f318	-0.19526327
43	0x3e943031	0.28943017
44	0xbd4fe998	-0.05075988
45	0x3e84813f	0.25879857
46	0xbd4865f8	-0.04892537
47	0xbe85156a	-0.259929
48	0xbe8cd3cd	-0.2750534
49	0xbe42f464	-0.1903854
50	0x3e9cdb9b	0.30636296
51	0xbeabdcae	-0.33566803
52	0xbeabc37c	-0.3354758
53	0xbdb4d7f4	-0.08830252
54	0x3e5dbe9e	0.21654746
55	0x3e08947a	0.1333789
56	0xbe2f4b4e	-0.1711857
57	0x3d0f6fc8	0.035018712
58	0xbe6159dc	-0.22006935
59	0xbe7f7ea6	-0.24950656
60	0x3de43cc8	0.111444056
61	0xbe81d31e	-0.25356382
62	0xbddab928	-0.10679847
63	0xbd193aa8	-0.037409455
64	0xbfef93bf	-1.8716964
65	0x3e40aa83	0.18815045
66	0xbf565b06	-0.8373264
67	0xbf85a027	-1.04395
68	0xbfab4cf4	-1.3382859
69	0x3f60a5d9	0.87753063
70	0xbdb833b3	-0.08994236
71	0xbf3326ce	-0.69981086
72	0xbe8d041d	-0.275422
73	0x3e8eee25	0.27916065
74	0xbf2b587d	-0.669319
75	0x3e0e8c82	0.13920787
76	0xbf0856a4	-0.53257203
77	0xbd17cb08	-0.03705886
78	0xbfa04cd3	-1.2523445
79	0xbe5031e9	-0.20331539
80	0x3f8f3897	1.1189145
81	0xbf91ac7a	-1.1380761
82	0xbded87e7	-0.11598187
83	0x3f37efcd	0.7185028
84	0xbe9bef2b	-0.30455908
85	0x3f75569b	0.95835274
86	0xbf984db3	-1.1898712
87	0x3f199189	0.59987694
88	0xbeb4cc75	-0.35312238
89	0x3ee1ae20	0.4407816
90	0x3ed596c8	0.417166
91	0xbf436ce8	-0.7633805
92	0x3e3a771c	0.18209499
93	0xbed9f475	-0.42569318
94	0x3f9be4fc	1.2179255
95	0xbe4f76b4	-0.20260125
96	0x3f9b557d	1.2135464
97	0x3f0daf69	0.5534578
98	0xbf664e0e	-0.8996285
99	0xbf639c0c	-0.88909984
100	0x3f0438ae	0.51648986
101	0x3fe3c2b2	1.7793791
102	0x3e105f62	0.14098886
103	0x3f2e44f6	0.68073976
104	0x3eb50fea	0.35363704
105	0xbf1295d9	-0.572599
106	0x3fab86c3	1.3400501
107	0x3bd85ccb	0.0066028587
108	0x3d36a715	0.044592936
109	0x3f37b03f	0.71753305
110	0xbf971b9c	-1.1805301
111	0x3e76abed	0.24089022
112	0x3e803b9a	0.25045472
113	0xbf805f61	-1.0029107
114	0x3e9caf2a	0.3060239
115	0xbfcefc88	-1.6170816
116	0x3ef37830	0.47552633
117	0xbfc9f19b	-1.5776857
118	0xbe5b3b17	-0.2140926
119	0xbeaddc3d	-0.3395709
120	0x3e8e4c85	0.27792755
121	0xbe81f91c	-0.25385368
122	0xbf2de651	-0.6792956
123	0x3febaed1	1.8412725
124	0xbe8a88e7	-0.27057573
125	0xbe7bf213	-0.24604063
126	0x3f04fd66	0.51949155
127	0xbba5dffb	-0.005062101

lstm2.weight_hh_l0 f4 [32, 8]
0	0xbe2f215d	-0.17102571
1	0x3e67bf56	0.22631583
2	0xbd553fe8	-0.0520629
3	0xbe9bd09e	-0.304326
4	0x3d9b1f24	0.07574299
5	0xbe89351d	-0.26798335
6	0x3ea12691	0.31474736
7	0xbe3c4953	-0.18387346
8	0x3e0b9a8c	0.13633174
9	0x3eb25aa1	0.3483477
10	0xbeab4f99	-0.33459166
11	0x3e01b77a	0.12667647
12	0xbd34b400	-0.044116974
13	0x3e812c8b	0.25229296
14	0x3de77550	0.113016725
15	0x3e4dfb5e	0.2011542
16	0x3e6a27c2	0.22866729
17	0xbd9da598	-0.076976
18	0xbc8665b0	-0.01640591
19	0x3d8f4178	0.06994909
20	0xbcacc4d0	-0.021089941
21	0x3ea969e9	0.33088616
22	0xbc432620	-0.011910945
23	0x3e96943b	0.29409966
24	0xbe20b8b3	-0.15695457
25	0xbd6bbfe8	-0.057556063
26	0x3e482d5a	0.1954855
27	0xbea01f2f	-0.3127379
28	0x3df02cd4	0.117273
29	0x3ddff080	0.109345436
30	0x3e015fc2	0.12634185
31	0xbda5372c	-0.08067164
32	0xbea5ab90	-0.32357454
33	0x3e218daa	0.15776697
34	0xbd669458	-0.056293815
35	0x3cffc220	0.031220496
36	0x3d81c004	0.06335452
37	0x3e1ea0f6	0.15491089
38	0x3d83a848	0.064285815
39	0xbe92fd24	-0.28708756
40	0x3e9da919	0.30793074
41	0x3e6f0772	0.23342684
42	0x3e49eaf2	0.19718531
43	0x3d7fed30	0.06248206
44	0xbceab060	-0.028648555
45	0x3db0fa30	0.086414695
46	0xbe256785	-0.16152771
47	0xbe659b4d	-0.22422524
48	0xbe82f338	-0.25576186
49	0xbde32794	-0.11091533
50	0xbdcd5a28	-0.100269616
51	0x3e98e583	0.29862604
52	0x3df33c1c	0.11876699
53	0xbd975fcc	-0.07391319
54	0xbe2200e2	-0.1582065
55	0xbe034c5a	-0.12822095
56	0xbe7d2ed0	-0.24724889
57	0xbe810bfd	-0.2520446
58	0x3df1f4e4	0.11814287
59	0x3e10286c	0.1407792
60	0x3e149700	0.14510727
61	0xbe9aa7ba	-0.3020609
62	0x3e3bb65a	0.1833128
63	0x3e54d6f6	0.20785126
64	0xbe80a8ec	-0.25128877
65	0x3dde36c4	0.108502895
66	0xbe83d374	-0.25747263
67	0xbe880db6	-0.2657296
68	0xbda91b94	-0.08257213
69	0xbe832d26	-0.25620383
70	0xbda459cc	-0.0802494
71	0xbe95c834	-0.29254305
72	0x3e984d6f	0.29746577
73	0x3daab6d8	0.08335656
74	0xbe2d9bcb	-0.16953962
75	0xbdb4bb8c	-0.08824834
76	0x3e43fdf6	0.19139847
77	0xbe8df704	-0.2772752
78	0xbe9c895f	-0.30573556
79	0x3e813abd	0.25240126
80	0x3e2431de	0.16034648
81	0xbe11756a	-0.14204946
82	0x3d3344e0	0.043766856
83	0xbe1d5815	-0.15365632
84	0x3e8dffa5	0.27734104
85	0x3e9711f3	0.29505882
86	0x3dfaa7f4	0.12239066
87	0xbe74af30	-0.23894954
88	0x3d917dc0	0.07104063
89	0xbe62a7d8	-0.2213434
90	0xbe1290e0	-0.14313078
91	0x3e81cb29	0.2535031
92	0x3e41a5ba	0.18910876
93	0x3dcfddf0	0.10149753
94	0xbe98b374	-0.29824412
95	0x3eaa3ad5	0.3324801
96	0xbe43eab2	-0.19132498
97	0x3e7fbc5e	0.249742
98	0xbd8c1c74	-0.068413645
99	0xbc3e02e0	-0.011597365
100	0xbe95d341	-0.29262736
101	0xbda76f04	-0.081754714
102	0x3e919fd5	0.28442255
103	0xbeafe821	-0.34356788
104	0x3a249200	0.0006277859
105	0x3db36bb0	0.08760774
106	0x3dea82a0	0.11450696
107	0x3cc20890	0.023685724
108	0xbe00927c	-0.1255588
109	0x3e932945	0.28742424
110	0x3d87b148	0.066256106
111	0xbe86dc61	-0.2634001
112	0xbe13e260	-0.14441824
113	0xbea61aac	-0.32442224
114	0x3d4d16d8	0.050070614
115	0xbe3ee377	-0.18641458
116	0xbcb42a20	-0.021992743
117	0xbe92f0a4	-0.2869922
118	0xbe32557d	-0.17415424
119	0x3e502e8a	0.20330253
120	0x3e125684	0.14290816
121	0xbe955e05	-0.29173294
122	0x3e991865	0.29901424
123	0xbe8d87b4	-0.27642596
124	0xbe89f9fa	-0.2694853
125	0xbe2cb369	-0.16865315
126	0xbdf673cc	-0.12033805
127	0x3e12624e	0.14295313
128	0xbdf0b290	-0.11752808
129	0x3e8b3909	0.27191952
130	0x3dd266a4	0.102734834
131	0xbe10a756	-0.14126334
132	0x3e9f8ce3	0.31162176
133	0xbe2ab212	-0.16669491
134	0xbe6a91a6	-0.22907123
135	0x3dfdac0c	0.12386331
136	0xbe0f194a	-0.13974491
137	0x3ea0e1ab	0.3142217
138	0xbd1fb758	-0.03899321
139	0x3e75c432	0.24000624
140	0xbd5345e0	-0.05158031
141	0xbe9108c2	-0.28326994
142	0x3d95d070	0.07315147
143	0xbe16acda	-0.14714375
144	0xbe99487a	-0.29938108
145	0x3e0834cc	0.1330139
146	0x3e5f7c8e	0.21824858
147	0xbce752f0	-0.02823779
148	0xbe162e25	-0.1466604
149	0x3d11fa18	0.0356389
150	0x3e27812a	0.16357866
151	0x3e8095f3	0.25114402
152	0x3ea032a3	0.31288633
153	0xbe5344cc	-0.20631713
154	0x3cc5a1d0	0.02412501
155	0xbe3069cb	-0.17227857
156	0xbdfbc3e6	-0.12293224
157	0xbe87cf8d	-0.26525536
158	0x3e9f4ead	0.31114712
159	0x3d93b890	0.07212937
160	0x3e8960f5	0.26831785
161	0xbd9aba7c	-0.075551
162	0xbcf7de70	-0.030257434
163	0xbe542f6f	-0.2072122
164	0xbc6d54c0	-0.014485538
165	0x3e98c239	0.2983568
166	0x3d565888	0.052330524
167	0xbeb43457	-0.35196182
168	0xbe914b80	-0.28377914
169	0x3c43a780	0.011941791
170	0x3b59ca00	0.0033231974
171	0x3ea0dff5	0.31420866
172	0xbd60f8e0	-0.054924846
173	0x3d692700	0.05692196
174	0xbe259085	-0.16168411
175	0x3e850185	0.25977722
176	0xbce693b0	-0.028146595
177	0x3e649f86	0.22326478
178	0xbe1f17e4	-0.15536457
179	0xbe9f01b3	-0.31055984
180	0x3d97ccbc	0.07412097
181	0x3e71ccee	0.2361333
182	0x3ea2abed	0.31771794
183	0x3d97e34c	0.074164
184	0xbe7c7e1c	-0.24657482
185	0x3dfa13fc	0.12210843
186	0xbc5e8860	-0.013582319
187	0x3e963f6f	0.2934527
188	0x3cff8d30	0.031195253
189	0xbc7434e0	-0.0149051845
190	0xbe37215b	-0.17883818
191	0xbe3d20f6	-0.18469605
192	0xbbc5de40	-0.006038457
193	0x3e17299e	0.1476197
194	0x3db62670	0.0889405
195	0x3e35f5a2	0.17769483
196	0xbdb20f60	-0.08694339
197	0xbe9feeae	-0.31236786
198	0x3e9ab76b	0.30218062
199	0x3d5259f8	0.051355332
200	0xbcbdb910	-0.023159534
201	0xbe453ace	-0.19260713
202	0x3e4f49d2	0.20243004
203	0xbe181a2f	-0.14853738
204	0x3deb59bc	0.11491725
205	0x3b0d0300	0.002151668
206	0xbe973f74	-0.29540598
207	0xbe82b54c	-0.25528944
208	0xbd1ec900	-0.038765907
209	0x3d1e7e38	0.03869459
210	0xbeb09264	-0.34486687
211	0x3d82cf9c	0.063872546
212	0xbd1c6a38	-0.038187236
213	0x3e05def6	0.13073334
214	0x3e0efbe4	0.13963276
215	0x3e939675	0.28825727
216	0xbe0768f0	-0.13223624
217	0x3e6a35aa	0.22872034
218	0xbe643c3b	-0.22288601
219	0x3e4666aa	0.193751
220	0xbde54b3c	-0.111959904
221	0xbe944176	-0.28956193
222	0x3e9ef9fb	0.31050095
223	0x3e128e3e	0.14312074
224	0x3c65bc80	0.014021993
225	0x3ea35961	0.31904128
226	0x3d098a08	0.033578902
227	0xbc86e1d0	-0.016465098
228	0x3de7a28c	0.113103
229	0x3d3fb128	0.04679981
230	0x3e441846	0.19149885
231	0xbd942ef4	-0.07235518
232	0x3eb28159	0.3486431
233	0xbdf32746	-0.11872725
234	0x3dac5a7c	0.08415696
235	0x3e8b80b9	0.27246645
236	0x3e2246c6	0.1584731
237	0x3e4ea3ca	0.20179668
238	0x3cc00cf0	0.02344367
239	0xbe6f318e	-0.23358747
240	0x3dd752bc	0.10513827
241	0x3e92f4a1	0.28702262
242	0xbda9e4fc	-0.082956284
243	0xbeb07b39	-0.3446901
244	0x3e9f6f4b	0.31139597
245	0x3e8accc3	0.27109346
246	0x3d10e3a0	0.03537333
247	0xbd997d58	-0.074946105
248	0x3e829117	0.2550132
249	0x3de394f4	0.11112395
250	0xbd2e6948	-0.042580873
251	0xbc808a90	-0.015691072
252	0xbea8f6d1	-0.33000806
253	0xbe2230ae	-0.15838882
254	0xbe7d708f	-0.24749969
255	0xbe934d08	-0.28769708

lstm2.bias_ih_l0 f4 [32]
0	0xbe79eb4c	-0.24406165
1	0xbf4ca033	-0.79931945
2	0x3e30a05b	0.17248671
3	0xbf78108a	-0.96900237
4	0x3d006083	0.03134204
5	0x3eb3feb8	0.35155272
6	0xbeaeb444	-0.34121907
7	0xbfe54939	-1.7912971
8	0x3e94c6f3	0.29058036
9	0x3e8cfec5	0.27538124
10	0xbe3d6738	-0.18496406
11	0xbc1d4980	-0.009600043
12	0x3d4504e0	0.048100352
13	0xbeaabf8d	-0.33349267
14	0x3e281586	0.1641446
15	0xbe13c5fb	-0.14430992
16	0xbb0450a1	-0.002018966
17	0x3dab846d	0.083748676
18	0xbf8deeb1	-1.1088468
19	0x3edff7e4	0.43743813
20	0xbed9ba84	-0.42525113
21	0xbe80d7db	-0.25164685
22	0xbf8a84b7	-1.0821751
23	0x3ef59006	0.47961444
24	0x3f828b58	1.0198774
25	0xbf587acb	-0.8456237
26	0x3e01f19b	0.12689821
27	0xbfa5d99f	-1.2957038
28	0x3e809698	0.25114894
29	0x3f1186dc	0.56846404
30	0xbf593a4b	-0.84854573
31	0x3e53f89d	0.20700307

lstm2.bias_hh_l0 f4 [32]
0	0xbe9f8a0f	-0.31160018
1	0xbf77bc8d	-0.9677208
2	0x3eb26ebe	0.34850115
3	0xbf4be3db	-0.79644555
4	0xbde0f1b1	-0.10983599
5	0x3e41b274	0.1891573
6	0xbef39a0a	-0.4757846
7	0xbfb3c619	-1.404483
8	0xbd358930	-0.044320285
9	0x3e80dc7f	0.25168225
10	0x3e7c724a	0.24652973
11	0x3db7de34	0.08977929
12	0xbd0bc528	-0.03412357
13	0x3d1606f0	0.03662771
14	0x3d815d58	0.06316632
15	0x3eb3c8c1	0.351141
16	0x3d8fe5a1	0.0702622
17	0x3e7d5d7f	0.24742697
18	0xbfb536d9	-1.4157363
19	0x3ea9876e	0.33111137
20	0xbf086b9b	-0.5328919
21	0xbf2cf3cd	-0.6755951
22	0xbf35f0c4	-0.71070504
23	0x3c8590aa	0.016304333
24	0x3fa780ee	1.3086221
25	0xbf7ea7af	-0.99474615
26	0x3e62ab0a	0.22135559
27	0xbf9b3d51	-1.2128087
28	0x3ee063d7	0.43826172
29	0x3f276916	0.65394723
30	0xbfba2a64	-1.4544187
31	0x3f116f68	0.5681062

batch_norm2.weight f4 [8]
0	0x3f970980	1.1799774
1	0x3f8c1428	1.0943651
2	0x40022d30	2.034008
3	0x3fd989c4	1.6995168
4	0x3fbfeb9f	1.4993781
5	0x3f129ce1	0.5727063
6	0x3f817845	1.0114828
7	0x3f3b63fe	0.7319945

batch_norm2.bias f4 [8]
0	0xbf554675	-0.83310634
1	0x3f0f41c6	0.5595974
2	0xbf6a4ce2	-0.91523564
3	0xbfe03517	-1.7516202
4	0x3f9afd63	1.2108577
5	0x3f6fcd97	0.9367308
6	0x3f80588f	1.0027026
7	0xbdf85c26	-0.12126951

batch_norm2.running_mean f4 [8]
0	0x3e3926dd	0.18081231
1	0x3d31a828	0.043373257
2	0xbebad182	-0.36487967
3	0x3d7c4b94	0.061595514
4	0xbdd6538d	-0.10465155
5	0xbe96033c	-0.29299343
6	0xbdb273ea	-0.08713515
7	0x3da22925	0.07918004

batch_norm2.running_var f4 [8]
0	0x3dc5ad75	0.09652225
1	0x3c9dae76	0.019248229
2	0x3d98e706	0.07465939
3	0x3c9a1910	0.018810779
4	0x3de09e34	0.10967675
5	0x3e0a565b	0.13509504
6	0x3cb7179d	0.022350127
7	0x3c794c0c	0.015215885

dense1.weight f4 [32, 8]
0	0x3ed082a7	0.4072468
1	0xbfe788bf	-1.8088607
2	0x3f50079e	0.8126162
3	0xbe877413	-0.26455745
4	0xbfc71cfa	-1.5555718
5	0x3eb54576	0.35404557
6	0xbe898ae0	-0.26863766
7	0xbf8753dd	-1.0572468
8	0xbfd02484	-1.6261144
9	0x3ea52ff7	0.32263157
10	0xbf8fbee5	-1.1230131
11	0xbef3e3fc	-0.47634876
12	0x3f4cc84e	0.7999314
13	0xbe715907	-0.23569117
14	0x3eec1d4e	0.46116108
15	0x3f7b15c5	0.9808009
16	0xbde19d0a	-0.11016281
17	0x3eb83d9a	0.35984498
18	0x3f43f0f0	0.76539516
19	0x3fd50b02	1.6643984
20	0xbe0763c8	-0.13221657
21	0xbcca47c2	-0.02469242
22	0xbf29fe65	-0.664038
23	0x3ce16398	0.02751331
24	0xbfbe55df	-1.4869956
25	0x3eae41d9	0.34034613
26	0xbfad830a	-1.3555615
27	0xbea0ef93	-0.3143278
28	0x3f3e20f0	0.7426901
29	0x3d16cfec	0.036819384
30	0x3ef68126	0.48145407
31	0x3f802b4f	1.0013217
32	0xbf3b99f6	-0.732818
33	0xbe92c61c	-0.2866677
34	0xbf1f2433	-0.6216461
35	0xbf3d6f9b	-0.7399842
36	0x3f2934ec	0.6609638
37	0xbe8249d6	-0.25446957
38	0xbd7be95d	-0.06150185
39	0x3e932bf5	0.28744474
40	0xbf472527	-0.77791065
41	0x3d6bcc06	0.05756762
42	0xbfa18616	-1.2619045
43	0xbf440624	-0.7657187
44	0x3efc9b45	0.4933721
45	0xbf79221f	-0.9731769
46	0x3dc87993	0.097888134
47	0x3e896a9c	0.2683915
48	0xbf38c6fd	-0.7217863
49	0x3e882394	0.26589644
50	0xbff372d3	-1.9019417
51	0xbe868073	-0.26269874
52	0x3ec1719b	0.37781987
53	0xbe05788a	-0.13034263
54	0x3e9a68c2	0.3015805
55	0x3fdc9f35	1.7236086
56	0x3f0367de	0.51330364
57	0x3df6bc36	0.12047617
58	0x3f96ce69	1.1781741
59	0x3fb84a13	1.4397606
60	0xbf03acdb	-0.5143563
61	0x3f97bfc2	1.1855395
62	0xbf4c8edf	-0.79905504
63	0x3db30c93	0.08742633
64	0xbfd04bd7	-1.6273144
65	0xbee822a3	-0.45338926
66	0xbf822051	-1.0166112
67	0xbec172c6	-0.37782878
68	0x3f69f826	0.9139427
69	0xbf69b145	-0.91286117
70	0x3e5fbf7a	0.21850386
71	0x3f3f6578	0.74764204
72	0xbf675262	-0.9036008
73	0xbf2a0ec1	-0.6642876
74	0x3eac5e4b	0.3366569
75	0x3ee406e9	0.44536522
76	0x3d2efc85	0.04272129
77	0xbe872a15	-0.26399294
78	0xc018095e	-2.3755717
79	0x3e544455	0.20729192
80	0x3f80674d	1.0031525
81	0x3fac38c5	1.3454825
82	0xbe7f4d9c	-0.2493195
83	0x3f2f96aa	0.6858927
84	0x3f0dfb47	0.55461544
85	0x3c94e05c	0.01817339
86	0xbeecff49	-0.46288517
87	0x3cd9c230	0.026581854
88	0xbeb6e396	-0.3572051
89	0x3d782a7f	0.060587402
90	0xbfdb31cc	-1.7124572
91	0x3e5dd2bf	0.21662425
92	0x3ebbb15d	0.36658755
93	0x3ecf4be6	0.40487593
94	0x3f5d9f65	0.8657134
95	0x3fc43b44	1.5330586
96	0x3f58e970	0.847312
97	0xbef51ba7	-0.4787266
98	0x3ff6b0d3	1.9272712
99	0x3ec9c594	0.39408553
100	0xbee355bf	-0.44401357
101	0x3f5d8d6c	0.8654392
102	0xbf143c53	-0.5790455
103	0xbf39a440	-0.7251625
104	0xbf113d0f	-0.56733793
105	0xbf90fe9e	-1.1327703
106	0x3fb34762	1.4006159
107	0xbe42d735	-0.19027407
108	0xbed1b0b8	-0.40955138
109	0x3f440612	0.7657176
110	0xbe3493ea	-0.1763455
111	0xbe8bb919	-0.27289656
112	0x3fd388ac	1.6526084
113	0x3f903744	1.1266866
114	0x3f270ff1	0.652587
115	0xbcffa191	-0.03120497
116	0x3d72abe8	0.059245974
117	0x3e48be9b	0.1960396
118	0x3fd08ea2	1.6293528
119	0xbdcacaea	-0.09901984
120	0x3f31c3e2	0.6943952
121	0x401cc065	2.4492428
122	0x3d115943	0.035485517
123	0xbe4ab017	-0.19793735
124	0x3f7ed992	0.99550736
125	0xbf773668	-0.9656739
126	0xbec594c5	-0.38590065
127	0xbf386976	-0.7203592
128	0x3f0c3d70	0.54781246
129	0xbfbd1d58	-1.477458
130	0x3f11778e	0.5682305
131	0xbe7c5a6d	-0.2464387
132	0xbfd2fabb	-1.6482767
133	0x3efaaba2	0.4895907
134	0xbe95114e	-0.29114765
135	0xbf690a82	-0.9103166
136	0xbf50a216	-0.81497324
137	0x3fae2bd5	1.3607126
138	0xbf43fba2	-0.76555836
139	0x3f1ad0bd	0.6047476
140	0x3f84cf02	1.0375674
141	0xbf89f884	-1.0778966
142	0x3e0ebb25	0.13938577
143	0x3e67eca6	0.22648868
144	0xbf7c8b3c	-0.98649955
145	0xbf4c7f91	-0.7988215
146	0xbe8c097d	-0.2735099
147	0xbf6fccb2	-0.93671715
148	0x3e141b0f	0.14463447
149	0xbde81177	-0.11331456
150	0x3d4b9d61	0.049710635
151	0x3f0f67c0	0.56017685
152	0x3d7f6405	0.062351245
153	0xbe421077	-0.18951593
154	0x40205b0e	2.5055575
155	0x3f168fbc	0.5881307
156	0xbefb0a63	-0.49031362
157	0x3fb4c424	1.4122357
158	0xbe1e2c3e	-0.15446565
159	0xbf40bf12	-0.7529155
160	0x3f40c2a7	0.75297016
161	0xbea2c54a	-0.31791145
162	0x3fe88ccd	1.8167969
163	0x3fa84f46	1.3149192
164	0xbe90ec68	-0.28305364
165	0x3f52b648	0.8230939
166	0xbf37d914	-0.7181561
167	0xbeb0297f	-0.3440666
168	0x3f6902db	0.9101998
169	0xbebc8d7b	-0.3682669
170	0x3fcfa88c	1.6223311
171	0x3e992c66	0.29916686
172	0xbf82ab98	-1.0208616
173	0x3f5fe3bf	0.8745689
174	0xbf0acafe	-0.5421599
175	0xbf5d47e7	-0.8643784
176	0x3fabd521	1.3424417
177	0x3f9138de	1.134548
178	0x3ef1eacc	0.47249448
179	0x3fdaceb9	1.7094337
180	0xbe934a21	-0.28767493
181	0x3eb999ff	0.36250302
182	0xbe03a570	-0.12856078
183	0xbe0274cd	-0.12739868
184	0xbf2b9ec2	-0.6703912
185	0x3d38b95b	0.045098644
186	0x3fabaa87	1.3411416
187	0x400628f2	2.096249
188	0xbeb4f551	-0.35343412
189	0x3f3942da	0.7236763
190	0xbe8f83f7	-0.2803037
191	0xbeb5a1e7	-0.35475084
192	0x3fe4d36f	1.7877024
193	0x3f1d3a4e	0.6141709
194	0x3f8e4e6e	1.1117685
195	0x3e9a2df7	0.30113193
196	0xbe53bd95	-0.20677789
197	0xbe91f61a	-0.28508073
198	0x3f8ae9a6	1.0852554
199	0xbe603f40	-0.21899128
200	0x3deef3ce	0.11667596
201	0xbe708aa3	-0.23490386
202	0xbf3657d8	-0.7122779
203	0xbf882f3e	-1.0639417
204	0xbfc940ff	-1.572296
205	0x3ea408bb	0.3203791
206	0x3fbf8ed1	1.4965459
207	0x3d8dcc7d	0.06923769
208	0xbe952ef8	-0.29137397
209	0xbfacab1d	-1.348972
210	0x3e89c369	0.269069
211	0x3f6ccbd3	0.9249851
212	0x3f0cb3b9	0.54961735
213	0x3dcf7674	0.10130015
214	0xbfb8d5f7	-1.4440297
215	0xbe853f20	-0.26024723
216	0x3f990426	1.1954391
217	0x3e99dc4b	0.30050883
218	0x3f41157c	0.7542341
219	0x3fb8f306	1.4449165
220	0xbf0dd1cc	-0.5539825
221	0x3f294d1a	0.6613327
222	0x3efff93b	0.49994835
223	0xbf228878	-0.63489485
224	0x3f1bf785	0.6092456
225	0xbfc21300	-1.5162048
226	0x3f45eb90	0.77312565
227	0xbe95ce6a	-0.29259044
228	0xbfbaf81e	-1.4606969
229	0x3f0613cb	0.5237395
230	0xbe9faf77	-0.31188557
231	0xbf3dba69	-0.74112564
232	0x3e93a630	0.28837729
233	0xbeac8a39	-0.33699206
234	0x3daad49c	0.08341333
235	0x403a88b5	2.914594
236	0xbeb81e83	-0.3596078
237	0xbe427b6f	-0.18992399
238	0xbf6760e4	-0.9038222
239	0x3dfcf297	0.12350958
240	0xbd83ad10	-0.064294934
241	0xbe01bb43	-0.12669091
242	0xbf1087a4	-0.5645697
243	0x3d613ddb	0.05499063
244	0xc04098a1	-3.0093157
245	0xbed6a30f	-0.4192128
246	0x3f388554	0.7207844
247	0xbd9b77be	-0.075911984
248	0x3e94067d	0.289112
249	0xbed1be14	-0.4096533
250	0x3f5c1be4	0.8598006
251	0xbde07304	-0.109594375
252	0xbed5805d	-0.41699496
253	0x3ebc071a	0.36724168
254	0x3d0a4149	0.033753667
255	0xbf7dfc68	-0.99213266

dense1.bias f4 [32]
0	0xbf9cd82d	-1.2253472
1	0xbeba528e	-0.3639111
2	0x3e120f70	0.14263701
3	0xbf87539d	-1.0572392
4	0xbeef82d6	-0.46779507
5	0x3f33b8a1	0.70203596
6	0x3f9bfbcf	1.2186221
7	0x3e71a1c7	0.2359687
8	0xbf4f333a	-0.8093754
9	0x3c9a359a	0.018824387
10	0x3f7df809	0.99206597
11	0xbf8b0dc8	-1.0863581
12	0xbed22a0f	-0.41047713
13	0xbf0fcea9	-0.56174713
14	0x3f1c24b3	0.609935
15	0xbee4142b	-0.44546637
16	0x3f0d6d8b	0.55245274
17	0xbf74dec5	-0.9565242
18	0x3e2bffc5	0.16796787
19	0x3e2a11e3	0.16608386
20	0xbdf394b0	-0.11893594
21	0xbecc71d8	-0.39930606
22	0xbff70ac8	-1.9300165
23	0xbe1bc18f	-0.15210555
24	0xbf275755	-0.65367633
25	0x3e82d0e2	0.2554999
26	0xbf3abe31	-0.7294646
27	0xbe959106	-0.29212207
28	0xbee6f428	-0.4510815
29	0xbec8a00a	-0.391846
30	0xbdc5e67e	-0.096631035
31	0xbe9b87ae	-0.30376953

batch_norm3.weight f4 [32]
0	0x3f9603d3	1.1719917
1	0x3f9e8e17	1.2387112
2	0x3fe3ab60	1.7786674
3	0x3fb59dc7	1.4188775
4	0x3ebb205a	0.3654812
5	0x3f1de2da	0.61674273
6	0x3fbd8789	1.4806987
7	0x3fb5e16c	1.4209418
8	0x3f9fe648	1.2492151
9	0x3fa99dfe	1.325134
10	0x3f8b07d8	1.0861769
11	0x3fe7116b	1.805219
12	0x3f676224	0.90384126
13	0x3f07c9ac	0.530421
14	0x3f9bb881	1.2165681
15	0x3fc75e7d	1.557571
16	0x3fa8da03	1.3191532
17	0x3f4e2fdc	0.8054178
18	0x3e18b32d	0.149121
19	0x3fc1400b	1.5097669
20	0x3f84391e	1.0329931
21	0x3fc595a5	1.5436293
22	0x3fe27b4d	1.7693878
23	0x3fd0b8a9	1.6306354
24	0x3f478633	0.77939147
25	0x3f9ef1e5	1.241757
26	0x3f83494c	1.0256743
27	0x3f0fd293	0.56180686
28	0x3fcca221	1.5986978
29	0x3f8d405e	1.1035268
30	0x3feaccac	1.8343711
31	0x3ec82643	0.3909169

batch_norm3.bias f4 [32]
0	0x3f38204b	0.71924275
1	0x3f4cc5d5	0.7998937
2	0xbf287ff3	-0.65820235
3	0x3f63e588	0.8902211
4	0xbf0b5b15	-0.54435855
5	0x3e149070	0.14508224
6	0x3f92a6d9	1.1457168
7	0xbe216e3c	-0.15764707
8	0x3f167461	0.5877133
9	0xbefacae9	-0.48982933
10	0xbf77d3dd	-0.9680765
11	0xbdce3d9a	-0.10070343
12	0x3fdb880b	1.7150892
13	0x3d25f4a5	0.040516514
14	0xbefa65e1	-0.48905852
15	0xbed260f8	-0.41089606
16	0x3f2744c0	0.6533928
17	0x3f2027f6	0.62560976
18	0xbeaf89d3	-0.3428484
19	0x3f899e7f	1.0751494
20	0x3fd0de72	1.6317885
21	0x3fbea365	1.4893614
22	0xbeb30cbc	-0.34970653
23	0x3ed918ed	0.4240183
24	0xbf4dd478	-0.80402327
25	0xbe1d4ec7	-0.15362082
26	0xbf3096ac	-0.6897991
27	0x3ed606f2	0.41802174
28	0x3f534fdf	0.8254375
29	0xbfb4eb7a	-1.4134362
30	0x3f49574f	0.7864885
31	0xbf2b439f	-0.66900057

batch_norm3.running_mean f4 [32]
0	0xc0911cda	-4.534772
1	0x4084b21d	4.1467423
2	0xc080dfc8	-4.027317
3	0x405ce6f1	3.4515955
4	0x4015acb9	2.3386672
5	0x406a9134	3.6651125
6	0x40922c67	4.56792
7	0xc0818d0e	-4.0484686
8	0x40137f52	2.304646
9	0xc04f97e2	-3.2436452
10	0x3e5045ae	0.2033908
11	0x3ff69e38	1.9267035
12	0xc08261eb	-4.074453
13	0xbfc80726	-1.5627182
14	0x3f9ff6e9	1.2497226
15	0x3f1ec4af	0.62018865
16	0xc0225293	-2.53629
17	0x3f08aed7	0.53391784
18	0x402033ee	2.5031695
19	0xc0288f63	-2.6337516
20	0xc0a50727	-5.157123
21	0xc0879fc8	-4.2382545
22	0xc0bd6b16	-5.919322
23	0xc08d3f02	-4.4139414
24	0xc0302508	-2.7522602
25	0x401748d0	2.3638191
26	0xc06df990	-3.718357
27	0xc074c076	-3.824247
28	0xc0601636	-3.5013556
29	0xc0ee8e16	-7.4548445
30	0xc043351c	-3.0501165
31	0xbfaff2b1	-1.3745939

batch_norm3.running_var f4 [32]
0	0x416a1566	14.630224
1	0x41d1a2f6	26.20457
2	0x418e0ddc	17.756767
3	0x41d1c874	26.222878
4	0x4147a246	12.477118
5	0x41bb9970	23.44992
6	0x42091dd6	34.279137
7	0x41ef1b40	29.888306
8	0x41e5a9bd	28.70788
9	0x4120dadf	10.053435
10	0x4103ae54	8.230061
11	0x41a83a0e	21.028347
12	0x420c4cf5	35.075153
13	0x4111ddad	9.11662
14	0x4190ecdf	18.11566
15	0x4126ae20	10.417511
16	0x414b3288	12.699837
17	0x412a8801	10.658204
18	0x41589ad3	13.537799
19	0x424262af	48.59637
20	0x422c1814	43.023514
21	0x41f910dc	31.133232
22	0x4200c883	32.195812
23	0x4203b70b	32.928753
24	0x41bf9d43	23.951788
25	0x41a57c47	20.685682
26	0x41128e6d	9.159772
27	0x41f63fc8	30.781143
28	0x4150a2d2	13.039751
29	0x41c83721	25.026918
30	0x41c51c6b	24.638876
31	0x40e5c682	7.180482

dense2.weight f4 [16, 32]
0	0x3a9b050e	0.0011827068
1	0x3ce7cc0c	0.02829554
2	0xbf46fc6e	-0.7772893
3	0x3bc18626	0.0059058843
4	0xbd84409b	-0.06457635
5	0xbdba5f4c	-0.09100208
6	0x3ee701ec	0.45118654
7	0xbff27c93	-1.8944267
8	0x3d62d180	0.055375576
9	0xbeba2750	-0.36358118
10	0xbf52565c	-0.82163024
11	0x3e8362bf	0.25661275
12	0xbf9dde60	-1.2333488
13	0xbe7f607f	-0.24939154
14	0xbf64b4df	-0.8933849
15	0x3dcaf033	0.099090956
16	0xbe3173e3	-0.17329364
17	0xbdc89ae5	-0.09795169
18	0xbc47cd29	-0.01219491
19	0xbfd3484e	-1.6506441
20	0xc0202047	-2.50197
21	0xbf895cea	-1.073148
22	0xbfdec34a	-1.7403347
23	0xc008dbb2	-2.1384091
24	0xbebf4873	-0.37359962
25	0x3ee232f5	0.44179502
26	0xbea32d0d	-0.3187031
27	0xbf829b6d	-1.0203682
28	0xbe90cbc6	-0.28280467
29	0xbf6a5c85	-0.91547424
30	0x3e4b5568	0.19856799
31	0xbdbf39ad	-0.09337173
32	0xbf3a1011	-0.72680765
33	0x3fc2c77d	1.5217129
34	0x3e60bf60	0.21948004
35	0x3ffb7e4c	1.9647918
36	0x3ea22de2	0.3167563
37	0x3f41b8e5	0.7567275
38	0x3fbcb457	1.4742535
39	0xbeb138ba	-0.3461359
40	0x3f8708dd	1.054958
41	0x3ce48374	0.027894713
42	0x3e12bbea	0.14329496
43	0x3f9b8ca0	1.215229
44	0xc000df1f	-2.0136182
45	0xbf09e1b4	-0.5386002
46	0xbf1aa2cb	-0.6040465
47	0x3b57d9dc	0.003293625
48	0xbf0f37be	-0.5594443
49	0x3edf0b64	0.43563378
50	0x3ed15158	0.40882373
51	0xbfa7c16d	-1.3105904
52	0xbfcfe98d	-1.6243149
53	0xbfce9677	-1.6139668
54	0xbf36acd6	-0.71357477
55	0xbf1848bb	-0.5948598
56	0xbeaf3dc3	-0.34226808
57	0x3e9c66e0	0.30547237
58	0x3e3a4836	0.18191609
59	0xbec47179	-0.38367823
60	0xbf172fac	-0.59057117
61	0xbe82fdd7	-0.2558429
62	0xbe3f52b9	-0.186839
63	0x3e2cbaad	0.16868086
64	0xbf053fe6	-0.52050626
65	0xbe31354e	-0.1730549
66	0xbfb20e2f	-1.3910578
67	0x3b302e5c	0.00268831
68	0xbd915e26	-0.070980355
69	0xbcb3f31e	-0.021966513
70	0x3e80d52c	0.25162637
71	0xbf555ac8	-0.83341646
72	0xbf0eabcd	-0.557309
73	0xc01dbfca	-2.4648309
74	0x3dd205f8	0.10255045
75	0x3e6672a4	0.2250467
76	0xbf0485cf	-0.51766676
77	0xbf0e3474	-0.5554879
78	0x3de8a8e6	0.1136034
79	0x3e9ea3dc	0.3098439
80	0xbded30f9	-0.115816064
81	0xbe7f6a7e	-0.24942967
82	0xbe3355bc	-0.17513174
83	0xbf58578c	-0.84508586
84	0xbf825092	-1.0180838
85	0xbf3145ba	-0.6924702
86	0xbed557b2	-0.4166847
87	0xbf748b31	-0.9552489
88	0x3dfbe67f	0.12299823
89	0x3ed09e33	0.40745696
90	0xbff53cc5	-1.915917
91	0x3ddaa90b	0.10676774
92	0xbe0acd5e	-0.13554904
93	0xbf850228	-1.0391283
94	0x3e286160	0.16443396
95	0xbe91309e	-0.28357404
96	0xbfc49211	-1.5357076
97	0x3ff70255	1.9297587
98	0xbe6fb389	-0.23408331
99	0x3fcbe827	1.5930222
100	0x3e913e94	0.28368056
101	0x3eabbd09	0.3354266
102	0x3f4c87c4	0.7989466
103	0xbe1f4566	-0.15553817
104	0x3fe16bdd	1.7611042
105	0x3e353d22	0.17699102
106	0xbdea46ec	-0.114393085
107	0x3f5e992d	0.8695248
108	0xbeab14bd	-0.3341426
109	0xbef0ed3a	-0.4705599
110	0xbf03f201	-0.51541144
111	0x3d646c65	0.055767436
112	0xbf83f13f	-1.0307997
113	0x3fdc4277	1.7207783
114	0x3e95fb29	0.29293182
115	0xbcd67dde	-0.026183065
116	0xbf0a0044	-0.53906655
117	0xbf91b02f	-1.1381892
118	0xbf3debbe	-0.7418784
119	0xbeaf5112	-0.3424154
120	0xbf0b3055	-0.54370624
121	0xbeb200f5	-0.34766355
122	0x3e49696f	0.19669126
123	0xbf155fa1	-0.58349043
124	0xbf903486	-1.1266029
125	0xbf30fe00	-0.69137573
126	0xbf581f51	-0.84422785
127	0xbd95d524	-0.07316044
128	0x3f88d163	1.06889
129	0xbf882c61	-1.0638543
130	0xbf80de69	-1.0067874
131	0xbfc5e2f1	-1.5459882
132	0xbddeb659	-0.10874624
133	0xbf4987d0	-0.7872286
134	0xbfe28832	-1.7697814
135	0xbe1fd9df	-0.15610455
136	0xbed4b6b5	-0.41545644
137	0x3df0ee63	0.11764219
138	0xbeec5fbf	-0.46166798
139	0xbfbcf004	-1.4760747
140	0x3f8f8fce	1.1215761
141	0x3f6d476d	0.9268711
142	0xbe9ce688	-0.3064463
143	0xbf8136cf	-1.0094851
144	0x3f1d90f9	0.61549336
145	0xbe641ab6	-0.22275814
146	0xbf1479fb	-0.5799863
147	0x3f8fb6d3	1.1227669
148	0x3f2cdaf0	0.6752157
149	0x3fc5c8c1	1.545189
150	0xbe1d8e80	-0.1538639
151	0xbecc23e2	-0.39871126
152	0x3d04e076	0.032440625
153	0xbec83233	-0.391008
154	0x3ee2acc1	0.44272426
155	0x3e40dce4	0.18834263
156	0x3f830eab	1.0238851
157	0xbf843e91	-1.0331594
158	0x3d88530d	0.06656466
159	0x3e6771cf	0.22602008
160	0xbeb93b0c	-0.36177862
161	0x3db024a5	0.086007394
162	0xbf31fa32	-0.6952239
163	0x3e9b79f4	0.3036648
164	0x3d0cc68c	0.034369037
165	0x3dad2dd2	0.08456005
166	0x3f1642c2	0.58695614
167	0xbfd321ca	-1.6494687
168	0xbd31897b	-0.043344002
169	0xbe90b58d	-0.28263512
170	0xbf513592	-0.81722367
171	0x3ee62a57	0.44954178
172	0xbfaf92a4	-1.3716626
173	0xbea89478	-0.32925773
174	0xbef8b6d7	-0.48576996
175	0xbd06e2f4	-0.032931283
176	0xbe4eb13c	-0.20184797
177	0xbde58392	-0.11206736
178	0xbd43f8f6	-0.04784485
179	0xbfbab9ee	-1.4587991
180	0xc030965e	-2.7591777
181	0xbf79278d	-0.97325975
182	0xbfdf76b3	-1.7458099
183	0xc00536e2	-2.0814748
184	0xbed78316	-0.42092198
185	0x3ee2a03e	0.4426288
186	0xbe9089b6	-0.28230065
187	0xbf6ebdd7	-0.9325842
188	0xbee432ab	-0.44569907
189	0xbf9e7940	-1.2380753
190	0xbca629dd	-0.020283634
191	0xbd95eb73	-0.07320299
192	0x3eb3953b	0.3507479
193	0xbf3ece75	-0.7453378
194	0xbfb98041	-1.4492265
195	0xbf388f57	-0.7209372
196	0xbf4d5a3f	-0.8021583
197	0xbf3ed86f	-0.74549
198	0xbf56780e	-0.8377694
199	0xbf673cba	-0.90327036
200	0xbf09b875	-0.53797084
201	0xbea4d2b6	-0.3219201
202	0xbfaa2486	-1.3292396
203	0xbf948bcf	-1.1605166
204	0x3e63a59e	0.22231147
205	0x3d51357d	0.0510764
206	0xbf6f42b9	-0.93461186
207	0xbfc6f038	-1.5542059
208	0x3f00038d	0.5000542
209	0xbf15ed73	-0.58565444
210	0xbdb5d94d	-0.088793375
211	0xbe584f50	-0.21124005
212	0xbec3eeb6	-0.3826806
213	0xbd7f6eb7	-0.062361445
214	0xbfa45a45	-1.2840048
215	0xbf78b984	-0.97158074
216	0xbf62fa0e	-0.88662803
217	0x3efc7bd5	0.49313226
218	0xbef19e6a	-0.47191173
219	0xbee45018	-0.44592357
220	0x3eff0885	0.49811187
221	0xbfd659de	-1.6746175
222	0x3f1228bd	0.5709341
223	0xbcf6364f	-0.030055193
224	0x3fbbd812	1.4675314
225	0xbf505a03	-0.81387347
226	0xbf239ebf	-0.639141
227	0xbf1a7b2b	-0.6034419
228	0xba83d8a4	-0.0010059071
229	0xbdf3db52	-0.119070664
230	0xbd015b36	-0.031581126
231	0xbdca8851	-0.098892815
232	0xbf88127a	-1.0630639
233	0xbf9560fd	-1.1670223
234	0xbe1e3e93	-0.15453558
235	0x3d4284fb	0.0474901
236	0x3ea68ae9	0.32527855
237	0x3e276840	0.16348362
238	0x3e2d7329	0.16938461
239	0xbf7ffe5e	-0.9999751
240	0x404a8d86	3.164888
241	0xbf8f2484	-1.1183019
242	0x3de7035a	0.11279936
243	0x3edd67af	0.43243167
244	0xbc650ed7	-0.013980589
245	0x3f289d6a	0.65865195
246	0x3eb8e921	0.36115363
247	0x3dbebdbc	0.09313533
248	0x3e2ab964	0.16672283
249	0x3f7f60c0	0.99757004
250	0xbf646076	-0.8920969
251	0x3f20822a	0.62698615
252	0x3fd509a3	1.6643566
253	0xbeacf53d	-0.33780852
254	0x3fed2a7a	1.8528588
255	0xbda7579e	-0.081710085

dense2.bias f4 [16]
0	0x3f158689	0.5840841
1	0xbe77dd8f	-0.24205612
2	0x3e497811	0.19674708
3	0xbf9e23d3	-1.2354683
4	0x3ed60b11	0.41805318
5	0x3f46a6cf	0.7759828
6	0x3d9172df	0.07101988
7	0x4000e385	2.0138867
8	0xbe3f58c7	-0.1868621
9	0x3f1786ac	0.5918987
10	0x3f5b7460	0.8572445
11	0x3f07a25f	0.52982134
12	0x3fa2ef9c	1.2729373
13	0xbf0758b2	-0.52869713
14	0x3ede341c	0.4339913
15	0x3eb95c01	0.36203006

batch_norm4.weight f4 [16]
0	0x3fdcd53d	1.7252575
1	0x3fc12c98	1.5091734
2	0x3f9aea19	1.2102691
3	0x3fec7032	1.8471739
4	0x3ffa2036	1.954108
5	0x3fcb1199	1.5864745
6	0x3f56d8ac	0.83924365
7	0x3fbc0f3e	1.4692152
8	0x3fff6229	1.9951831
9	0x3fc45369	1.5337955
10	0x3ff85fb9	1.9404212
11	0x3f7f7106	0.99781835
12	0x3fc3c57b	1.5294641
13	0x3fa34d78	1.2758017
14	0x3fd6afe9	1.6772434
15	0x40045706	2.0678115

batch_norm4.bias f4 [16]
0	0x401c7c4e	2.445087
1	0x4012e0c7	2.2949693
2	0x402a6752	2.6625562
3	0x3fbb0328	1.4610338
4	0x3fc5b218	1.5444975
5	0x4026ea98	2.6080685
6	0x40131ff9	2.2988265
7	0x3f5e9cef	0.8695821
8	0x3f298963	0.6622526
9	0x403166c2	2.7718968
10	0x40162dc3	2.346543
11	0x400a3b6f	2.1598775
12	0x3ff7732d	1.9332024
13	0x40162edd	2.3466103
14	0x3fbc140e	1.469362
15	0x3ffefbc8	1.9920588

batch_norm4.running_mean f4 [16]
0	0xc15daf75	-13.855336
1	0xc0b4569c	-5.6355724
2	0xc1075979	-8.459344
3	0xc00f8f32	-2.243115
4	0x3fef07bd	1.8674237
5	0xc15b92fb	-13.723384
6	0xc0ec822a	-7.390889
7	0x4110208a	9.007944
8	0x405a11b2	3.40733
9	0xc0d743b9	-6.727017
10	0xc14a643a	-12.649469
11	0xc015e0e5	-2.3418515
12	0x3fbbc422	1.466923
13	0xc059408d	-3.3945649
14	0x41377552	11.466143
15	0xc0cb0c43	-6.345247

batch_norm4.running_var f4 [16]
0	0x438caba9	281.3411
1	0x43a1fedb	323.99106
2	0x42a194a8	80.790344
3	0x4351d3e2	209.82767
4	0x4335a76b	181.65398
5	0x43917925	290.94644
6	0x42b842bc	92.13034
7	0x42faf7ea	125.48421
8	0x42caa608	101.32428
9	0x43a9c73b	339.5565
10	0x43906ecf	288.8657
11	0x42db308f	109.59484
12	0x43116e4f	145.4309
13	0x4397706f	302.8784
14	0x434b9ec2	203.62015
15	0x42f6b33f	123.35009

dense3.weight f4 [1, 16]
0	0x3fdeb449	1.7398769
1	0x3fc5bded	1.5448586
2	0x3ff40c31	1.906622
3	0x3fa09e65	1.2548338
4	0x3f982dc4	1.1888967
5	0x3fde9e5e	1.739208
6	0x3fb50174	1.4141068
7	0x3f521948	0.82069826
8	0x3f820851	1.0158788
9	0x3fdc7ec4	1.7226186
10	0x3fe2456c	1.7677436
11	0x3fa68a60	1.3010979
12	0x3f9c28bc	1.2199931
13	0x3fc2bf20	1.5214577
14	0x3f8fbe77	1.123
15	0x3fc52e62	1.540478
